{
  "nodes": [
    {
      "op": "null", 
      "name": "data", 
      "inputs": []
    }, 
    {
      "op": "null", 
      "name": "conv0_weight", 
      "attrs": {
        "kernel": "(3, 3)", 
        "no_bias": "True", 
        "num_filter": "64", 
        "pad": "(1, 1)", 
        "stride": "(1, 1)", 
        "workspace": "256"
      }, 
      "inputs": []
    }, 
    {
      "op": "Convolution", 
      "name": "conv0", 
      "attrs": {
        "kernel": "(3, 3)", 
        "no_bias": "True", 
        "num_filter": "64", 
        "pad": "(1, 1)", 
        "stride": "(1, 1)", 
        "workspace": "256"
      }, 
      "inputs": [[0, 0, 0], [1, 0, 0]]
    }, 
    {
      "op": "null", 
      "name": "bn0_gamma", 
      "attrs": {
        "eps": "2e-05", 
        "fix_gamma": "False", 
        "momentum": "0.9"
      }, 
      "inputs": []
    }, 
    {
      "op": "null", 
      "name": "bn0_beta", 
      "attrs": {
        "eps": "2e-05", 
        "fix_gamma": "False", 
        "momentum": "0.9"
      }, 
      "inputs": []
    }, 
    {
      "op": "null", 
      "name": "bn0_moving_mean", 
      "attrs": {
        "__init__": "[\"zero\", {}]", 
        "eps": "2e-05", 
        "fix_gamma": "False", 
        "momentum": "0.9"
      }, 
      "inputs": []
    }, 
    {
      "op": "null", 
      "name": "bn0_moving_var", 
      "attrs": {
        "__init__": "[\"one\", {}]", 
        "eps": "2e-05", 
        "fix_gamma": "False", 
        "momentum": "0.9"
      }, 
      "inputs": []
    }, 
    {
      "op": "BatchNorm", 
      "name": "bn0", 
      "attrs": {
        "eps": "2e-05", 
        "fix_gamma": "False", 
        "momentum": "0.9"
      }, 
      "inputs": [[2, 0, 0], [3, 0, 0], [4, 0, 0], [5, 0, 1], [6, 0, 1]]
    }, 
    {
      "op": "Activation", 
      "name": "relu0", 
      "attrs": {"act_type": "relu"}, 
      "inputs": [[7, 0, 0]]
    }, 
    {
      "op": "null", 
      "name": "stage1_unit1_conv1_weight", 
      "attrs": {
        "kernel": "(1, 1)", 
        "no_bias": "True", 
        "num_filter": "64", 
        "pad": "(0, 0)", 
        "stride": "(1, 1)", 
        "workspace": "256"
      }, 
      "inputs": []
    }, 
    {
      "op": "Convolution", 
      "name": "stage1_unit1_conv1", 
      "attrs": {
        "kernel": "(1, 1)", 
        "no_bias": "True", 
        "num_filter": "64", 
        "pad": "(0, 0)", 
        "stride": "(1, 1)", 
        "workspace": "256"
      }, 
      "inputs": [[8, 0, 0], [9, 0, 0]]
    }, 
    {
      "op": "null", 
      "name": "stage1_unit1_bn1_gamma", 
      "attrs": {
        "eps": "2e-05", 
        "fix_gamma": "False", 
        "momentum": "0.9"
      }, 
      "inputs": []
    }, 
    {
      "op": "null", 
      "name": "stage1_unit1_bn1_beta", 
      "attrs": {
        "eps": "2e-05", 
        "fix_gamma": "False", 
        "momentum": "0.9"
      }, 
      "inputs": []
    }, 
    {
      "op": "null", 
      "name": "stage1_unit1_bn1_moving_mean", 
      "attrs": {
        "__init__": "[\"zero\", {}]", 
        "eps": "2e-05", 
        "fix_gamma": "False", 
        "momentum": "0.9"
      }, 
      "inputs": []
    }, 
    {
      "op": "null", 
      "name": "stage1_unit1_bn1_moving_var", 
      "attrs": {
        "__init__": "[\"one\", {}]", 
        "eps": "2e-05", 
        "fix_gamma": "False", 
        "momentum": "0.9"
      }, 
      "inputs": []
    }, 
    {
      "op": "BatchNorm", 
      "name": "stage1_unit1_bn1", 
      "attrs": {
        "eps": "2e-05", 
        "fix_gamma": "False", 
        "momentum": "0.9"
      }, 
      "inputs": [[10, 0, 0], [11, 0, 0], [12, 0, 0], [13, 0, 1], [14, 0, 1]]
    }, 
    {
      "op": "Activation", 
      "name": "stage1_unit1_relu1", 
      "attrs": {"act_type": "relu"}, 
      "inputs": [[15, 0, 0]]
    }, 
    {
      "op": "null", 
      "name": "stage1_unit1_conv2_weight", 
      "attrs": {
        "kernel": "(3, 3)", 
        "no_bias": "True", 
        "num_filter": "64", 
        "pad": "(1, 1)", 
        "stride": "(1, 1)", 
        "workspace": "256"
      }, 
      "inputs": []
    }, 
    {
      "op": "Convolution", 
      "name": "stage1_unit1_conv2", 
      "attrs": {
        "kernel": "(3, 3)", 
        "no_bias": "True", 
        "num_filter": "64", 
        "pad": "(1, 1)", 
        "stride": "(1, 1)", 
        "workspace": "256"
      }, 
      "inputs": [[16, 0, 0], [17, 0, 0]]
    }, 
    {
      "op": "null", 
      "name": "stage1_unit1_bn2_gamma", 
      "attrs": {
        "eps": "2e-05", 
        "fix_gamma": "False", 
        "momentum": "0.9"
      }, 
      "inputs": []
    }, 
    {
      "op": "null", 
      "name": "stage1_unit1_bn2_beta", 
      "attrs": {
        "eps": "2e-05", 
        "fix_gamma": "False", 
        "momentum": "0.9"
      }, 
      "inputs": []
    }, 
    {
      "op": "null", 
      "name": "stage1_unit1_bn2_moving_mean", 
      "attrs": {
        "__init__": "[\"zero\", {}]", 
        "eps": "2e-05", 
        "fix_gamma": "False", 
        "momentum": "0.9"
      }, 
      "inputs": []
    }, 
    {
      "op": "null", 
      "name": "stage1_unit1_bn2_moving_var", 
      "attrs": {
        "__init__": "[\"one\", {}]", 
        "eps": "2e-05", 
        "fix_gamma": "False", 
        "momentum": "0.9"
      }, 
      "inputs": []
    }, 
    {
      "op": "BatchNorm", 
      "name": "stage1_unit1_bn2", 
      "attrs": {
        "eps": "2e-05", 
        "fix_gamma": "False", 
        "momentum": "0.9"
      }, 
      "inputs": [[18, 0, 0], [19, 0, 0], [20, 0, 0], [21, 0, 1], [22, 0, 1]]
    }, 
    {
      "op": "Activation", 
      "name": "stage1_unit1_relu2", 
      "attrs": {"act_type": "relu"}, 
      "inputs": [[23, 0, 0]]
    }, 
    {
      "op": "null", 
      "name": "stage1_unit1_conv3_weight", 
      "attrs": {
        "kernel": "(1, 1)", 
        "no_bias": "True", 
        "num_filter": "256", 
        "pad": "(0, 0)", 
        "stride": "(2, 2)", 
        "workspace": "256"
      }, 
      "inputs": []
    }, 
    {
      "op": "Convolution", 
      "name": "stage1_unit1_conv3", 
      "attrs": {
        "kernel": "(1, 1)", 
        "no_bias": "True", 
        "num_filter": "256", 
        "pad": "(0, 0)", 
        "stride": "(2, 2)", 
        "workspace": "256"
      }, 
      "inputs": [[24, 0, 0], [25, 0, 0]]
    }, 
    {
      "op": "null", 
      "name": "stage1_unit1_bn3_gamma", 
      "attrs": {
        "eps": "2e-05", 
        "fix_gamma": "False", 
        "momentum": "0.9"
      }, 
      "inputs": []
    }, 
    {
      "op": "null", 
      "name": "stage1_unit1_bn3_beta", 
      "attrs": {
        "eps": "2e-05", 
        "fix_gamma": "False", 
        "momentum": "0.9"
      }, 
      "inputs": []
    }, 
    {
      "op": "null", 
      "name": "stage1_unit1_bn3_moving_mean", 
      "attrs": {
        "__init__": "[\"zero\", {}]", 
        "eps": "2e-05", 
        "fix_gamma": "False", 
        "momentum": "0.9"
      }, 
      "inputs": []
    }, 
    {
      "op": "null", 
      "name": "stage1_unit1_bn3_moving_var", 
      "attrs": {
        "__init__": "[\"one\", {}]", 
        "eps": "2e-05", 
        "fix_gamma": "False", 
        "momentum": "0.9"
      }, 
      "inputs": []
    }, 
    {
      "op": "BatchNorm", 
      "name": "stage1_unit1_bn3", 
      "attrs": {
        "eps": "2e-05", 
        "fix_gamma": "False", 
        "momentum": "0.9"
      }, 
      "inputs": [[26, 0, 0], [27, 0, 0], [28, 0, 0], [29, 0, 1], [30, 0, 1]]
    }, 
    {
      "op": "null", 
      "name": "stage1_unit1_conv1sc_weight", 
      "attrs": {
        "kernel": "(1, 1)", 
        "no_bias": "True", 
        "num_filter": "256", 
        "stride": "(2, 2)", 
        "workspace": "256"
      }, 
      "inputs": []
    }, 
    {
      "op": "Convolution", 
      "name": "stage1_unit1_conv1sc", 
      "attrs": {
        "kernel": "(1, 1)", 
        "no_bias": "True", 
        "num_filter": "256", 
        "stride": "(2, 2)", 
        "workspace": "256"
      }, 
      "inputs": [[8, 0, 0], [32, 0, 0]]
    }, 
    {
      "op": "null", 
      "name": "stage1_unit1_sc_gamma", 
      "attrs": {
        "eps": "2e-05", 
        "fix_gamma": "False", 
        "momentum": "0.9"
      }, 
      "inputs": []
    }, 
    {
      "op": "null", 
      "name": "stage1_unit1_sc_beta", 
      "attrs": {
        "eps": "2e-05", 
        "fix_gamma": "False", 
        "momentum": "0.9"
      }, 
      "inputs": []
    }, 
    {
      "op": "null", 
      "name": "stage1_unit1_sc_moving_mean", 
      "attrs": {
        "__init__": "[\"zero\", {}]", 
        "eps": "2e-05", 
        "fix_gamma": "False", 
        "momentum": "0.9"
      }, 
      "inputs": []
    }, 
    {
      "op": "null", 
      "name": "stage1_unit1_sc_moving_var", 
      "attrs": {
        "__init__": "[\"one\", {}]", 
        "eps": "2e-05", 
        "fix_gamma": "False", 
        "momentum": "0.9"
      }, 
      "inputs": []
    }, 
    {
      "op": "BatchNorm", 
      "name": "stage1_unit1_sc", 
      "attrs": {
        "eps": "2e-05", 
        "fix_gamma": "False", 
        "momentum": "0.9"
      }, 
      "inputs": [[33, 0, 0], [34, 0, 0], [35, 0, 0], [36, 0, 1], [37, 0, 1]]
    }, 
    {
      "op": "elemwise_add", 
      "name": "_plus0", 
      "inputs": [[31, 0, 0], [38, 0, 0]]
    }, 
    {
      "op": "Activation", 
      "name": "stage1_unit1_relu3", 
      "attrs": {"act_type": "relu"}, 
      "inputs": [[39, 0, 0]]
    }, 
    {
      "op": "null", 
      "name": "stage1_unit2_conv1_weight", 
      "attrs": {
        "kernel": "(1, 1)", 
        "no_bias": "True", 
        "num_filter": "64", 
        "pad": "(0, 0)", 
        "stride": "(1, 1)", 
        "workspace": "256"
      }, 
      "inputs": []
    }, 
    {
      "op": "Convolution", 
      "name": "stage1_unit2_conv1", 
      "attrs": {
        "kernel": "(1, 1)", 
        "no_bias": "True", 
        "num_filter": "64", 
        "pad": "(0, 0)", 
        "stride": "(1, 1)", 
        "workspace": "256"
      }, 
      "inputs": [[40, 0, 0], [41, 0, 0]]
    }, 
    {
      "op": "null", 
      "name": "stage1_unit2_bn1_gamma", 
      "attrs": {
        "eps": "2e-05", 
        "fix_gamma": "False", 
        "momentum": "0.9"
      }, 
      "inputs": []
    }, 
    {
      "op": "null", 
      "name": "stage1_unit2_bn1_beta", 
      "attrs": {
        "eps": "2e-05", 
        "fix_gamma": "False", 
        "momentum": "0.9"
      }, 
      "inputs": []
    }, 
    {
      "op": "null", 
      "name": "stage1_unit2_bn1_moving_mean", 
      "attrs": {
        "__init__": "[\"zero\", {}]", 
        "eps": "2e-05", 
        "fix_gamma": "False", 
        "momentum": "0.9"
      }, 
      "inputs": []
    }, 
    {
      "op": "null", 
      "name": "stage1_unit2_bn1_moving_var", 
      "attrs": {
        "__init__": "[\"one\", {}]", 
        "eps": "2e-05", 
        "fix_gamma": "False", 
        "momentum": "0.9"
      }, 
      "inputs": []
    }, 
    {
      "op": "BatchNorm", 
      "name": "stage1_unit2_bn1", 
      "attrs": {
        "eps": "2e-05", 
        "fix_gamma": "False", 
        "momentum": "0.9"
      }, 
      "inputs": [[42, 0, 0], [43, 0, 0], [44, 0, 0], [45, 0, 1], [46, 0, 1]]
    }, 
    {
      "op": "Activation", 
      "name": "stage1_unit2_relu1", 
      "attrs": {"act_type": "relu"}, 
      "inputs": [[47, 0, 0]]
    }, 
    {
      "op": "null", 
      "name": "stage1_unit2_conv2_weight", 
      "attrs": {
        "kernel": "(3, 3)", 
        "no_bias": "True", 
        "num_filter": "64", 
        "pad": "(1, 1)", 
        "stride": "(1, 1)", 
        "workspace": "256"
      }, 
      "inputs": []
    }, 
    {
      "op": "Convolution", 
      "name": "stage1_unit2_conv2", 
      "attrs": {
        "kernel": "(3, 3)", 
        "no_bias": "True", 
        "num_filter": "64", 
        "pad": "(1, 1)", 
        "stride": "(1, 1)", 
        "workspace": "256"
      }, 
      "inputs": [[48, 0, 0], [49, 0, 0]]
    }, 
    {
      "op": "null", 
      "name": "stage1_unit2_bn2_gamma", 
      "attrs": {
        "eps": "2e-05", 
        "fix_gamma": "False", 
        "momentum": "0.9"
      }, 
      "inputs": []
    }, 
    {
      "op": "null", 
      "name": "stage1_unit2_bn2_beta", 
      "attrs": {
        "eps": "2e-05", 
        "fix_gamma": "False", 
        "momentum": "0.9"
      }, 
      "inputs": []
    }, 
    {
      "op": "null", 
      "name": "stage1_unit2_bn2_moving_mean", 
      "attrs": {
        "__init__": "[\"zero\", {}]", 
        "eps": "2e-05", 
        "fix_gamma": "False", 
        "momentum": "0.9"
      }, 
      "inputs": []
    }, 
    {
      "op": "null", 
      "name": "stage1_unit2_bn2_moving_var", 
      "attrs": {
        "__init__": "[\"one\", {}]", 
        "eps": "2e-05", 
        "fix_gamma": "False", 
        "momentum": "0.9"
      }, 
      "inputs": []
    }, 
    {
      "op": "BatchNorm", 
      "name": "stage1_unit2_bn2", 
      "attrs": {
        "eps": "2e-05", 
        "fix_gamma": "False", 
        "momentum": "0.9"
      }, 
      "inputs": [[50, 0, 0], [51, 0, 0], [52, 0, 0], [53, 0, 1], [54, 0, 1]]
    }, 
    {
      "op": "Activation", 
      "name": "stage1_unit2_relu2", 
      "attrs": {"act_type": "relu"}, 
      "inputs": [[55, 0, 0]]
    }, 
    {
      "op": "null", 
      "name": "stage1_unit2_conv3_weight", 
      "attrs": {
        "kernel": "(1, 1)", 
        "no_bias": "True", 
        "num_filter": "256", 
        "pad": "(0, 0)", 
        "stride": "(1, 1)", 
        "workspace": "256"
      }, 
      "inputs": []
    }, 
    {
      "op": "Convolution", 
      "name": "stage1_unit2_conv3", 
      "attrs": {
        "kernel": "(1, 1)", 
        "no_bias": "True", 
        "num_filter": "256", 
        "pad": "(0, 0)", 
        "stride": "(1, 1)", 
        "workspace": "256"
      }, 
      "inputs": [[56, 0, 0], [57, 0, 0]]
    }, 
    {
      "op": "null", 
      "name": "stage1_unit2_bn3_gamma", 
      "attrs": {
        "eps": "2e-05", 
        "fix_gamma": "False", 
        "momentum": "0.9"
      }, 
      "inputs": []
    }, 
    {
      "op": "null", 
      "name": "stage1_unit2_bn3_beta", 
      "attrs": {
        "eps": "2e-05", 
        "fix_gamma": "False", 
        "momentum": "0.9"
      }, 
      "inputs": []
    }, 
    {
      "op": "null", 
      "name": "stage1_unit2_bn3_moving_mean", 
      "attrs": {
        "__init__": "[\"zero\", {}]", 
        "eps": "2e-05", 
        "fix_gamma": "False", 
        "momentum": "0.9"
      }, 
      "inputs": []
    }, 
    {
      "op": "null", 
      "name": "stage1_unit2_bn3_moving_var", 
      "attrs": {
        "__init__": "[\"one\", {}]", 
        "eps": "2e-05", 
        "fix_gamma": "False", 
        "momentum": "0.9"
      }, 
      "inputs": []
    }, 
    {
      "op": "BatchNorm", 
      "name": "stage1_unit2_bn3", 
      "attrs": {
        "eps": "2e-05", 
        "fix_gamma": "False", 
        "momentum": "0.9"
      }, 
      "inputs": [[58, 0, 0], [59, 0, 0], [60, 0, 0], [61, 0, 1], [62, 0, 1]]
    }, 
    {
      "op": "elemwise_add", 
      "name": "_plus1", 
      "inputs": [[63, 0, 0], [40, 0, 0]]
    }, 
    {
      "op": "Activation", 
      "name": "stage1_unit2_relu3", 
      "attrs": {"act_type": "relu"}, 
      "inputs": [[64, 0, 0]]
    }, 
    {
      "op": "null", 
      "name": "stage1_unit3_conv1_weight", 
      "attrs": {
        "kernel": "(1, 1)", 
        "no_bias": "True", 
        "num_filter": "64", 
        "pad": "(0, 0)", 
        "stride": "(1, 1)", 
        "workspace": "256"
      }, 
      "inputs": []
    }, 
    {
      "op": "Convolution", 
      "name": "stage1_unit3_conv1", 
      "attrs": {
        "kernel": "(1, 1)", 
        "no_bias": "True", 
        "num_filter": "64", 
        "pad": "(0, 0)", 
        "stride": "(1, 1)", 
        "workspace": "256"
      }, 
      "inputs": [[65, 0, 0], [66, 0, 0]]
    }, 
    {
      "op": "null", 
      "name": "stage1_unit3_bn1_gamma", 
      "attrs": {
        "eps": "2e-05", 
        "fix_gamma": "False", 
        "momentum": "0.9"
      }, 
      "inputs": []
    }, 
    {
      "op": "null", 
      "name": "stage1_unit3_bn1_beta", 
      "attrs": {
        "eps": "2e-05", 
        "fix_gamma": "False", 
        "momentum": "0.9"
      }, 
      "inputs": []
    }, 
    {
      "op": "null", 
      "name": "stage1_unit3_bn1_moving_mean", 
      "attrs": {
        "__init__": "[\"zero\", {}]", 
        "eps": "2e-05", 
        "fix_gamma": "False", 
        "momentum": "0.9"
      }, 
      "inputs": []
    }, 
    {
      "op": "null", 
      "name": "stage1_unit3_bn1_moving_var", 
      "attrs": {
        "__init__": "[\"one\", {}]", 
        "eps": "2e-05", 
        "fix_gamma": "False", 
        "momentum": "0.9"
      }, 
      "inputs": []
    }, 
    {
      "op": "BatchNorm", 
      "name": "stage1_unit3_bn1", 
      "attrs": {
        "eps": "2e-05", 
        "fix_gamma": "False", 
        "momentum": "0.9"
      }, 
      "inputs": [[67, 0, 0], [68, 0, 0], [69, 0, 0], [70, 0, 1], [71, 0, 1]]
    }, 
    {
      "op": "Activation", 
      "name": "stage1_unit3_relu1", 
      "attrs": {"act_type": "relu"}, 
      "inputs": [[72, 0, 0]]
    }, 
    {
      "op": "null", 
      "name": "stage1_unit3_conv2_weight", 
      "attrs": {
        "kernel": "(3, 3)", 
        "no_bias": "True", 
        "num_filter": "64", 
        "pad": "(1, 1)", 
        "stride": "(1, 1)", 
        "workspace": "256"
      }, 
      "inputs": []
    }, 
    {
      "op": "Convolution", 
      "name": "stage1_unit3_conv2", 
      "attrs": {
        "kernel": "(3, 3)", 
        "no_bias": "True", 
        "num_filter": "64", 
        "pad": "(1, 1)", 
        "stride": "(1, 1)", 
        "workspace": "256"
      }, 
      "inputs": [[73, 0, 0], [74, 0, 0]]
    }, 
    {
      "op": "null", 
      "name": "stage1_unit3_bn2_gamma", 
      "attrs": {
        "eps": "2e-05", 
        "fix_gamma": "False", 
        "momentum": "0.9"
      }, 
      "inputs": []
    }, 
    {
      "op": "null", 
      "name": "stage1_unit3_bn2_beta", 
      "attrs": {
        "eps": "2e-05", 
        "fix_gamma": "False", 
        "momentum": "0.9"
      }, 
      "inputs": []
    }, 
    {
      "op": "null", 
      "name": "stage1_unit3_bn2_moving_mean", 
      "attrs": {
        "__init__": "[\"zero\", {}]", 
        "eps": "2e-05", 
        "fix_gamma": "False", 
        "momentum": "0.9"
      }, 
      "inputs": []
    }, 
    {
      "op": "null", 
      "name": "stage1_unit3_bn2_moving_var", 
      "attrs": {
        "__init__": "[\"one\", {}]", 
        "eps": "2e-05", 
        "fix_gamma": "False", 
        "momentum": "0.9"
      }, 
      "inputs": []
    }, 
    {
      "op": "BatchNorm", 
      "name": "stage1_unit3_bn2", 
      "attrs": {
        "eps": "2e-05", 
        "fix_gamma": "False", 
        "momentum": "0.9"
      }, 
      "inputs": [[75, 0, 0], [76, 0, 0], [77, 0, 0], [78, 0, 1], [79, 0, 1]]
    }, 
    {
      "op": "Activation", 
      "name": "stage1_unit3_relu2", 
      "attrs": {"act_type": "relu"}, 
      "inputs": [[80, 0, 0]]
    }, 
    {
      "op": "null", 
      "name": "stage1_unit3_conv3_weight", 
      "attrs": {
        "kernel": "(1, 1)", 
        "no_bias": "True", 
        "num_filter": "256", 
        "pad": "(0, 0)", 
        "stride": "(1, 1)", 
        "workspace": "256"
      }, 
      "inputs": []
    }, 
    {
      "op": "Convolution", 
      "name": "stage1_unit3_conv3", 
      "attrs": {
        "kernel": "(1, 1)", 
        "no_bias": "True", 
        "num_filter": "256", 
        "pad": "(0, 0)", 
        "stride": "(1, 1)", 
        "workspace": "256"
      }, 
      "inputs": [[81, 0, 0], [82, 0, 0]]
    }, 
    {
      "op": "null", 
      "name": "stage1_unit3_bn3_gamma", 
      "attrs": {
        "eps": "2e-05", 
        "fix_gamma": "False", 
        "momentum": "0.9"
      }, 
      "inputs": []
    }, 
    {
      "op": "null", 
      "name": "stage1_unit3_bn3_beta", 
      "attrs": {
        "eps": "2e-05", 
        "fix_gamma": "False", 
        "momentum": "0.9"
      }, 
      "inputs": []
    }, 
    {
      "op": "null", 
      "name": "stage1_unit3_bn3_moving_mean", 
      "attrs": {
        "__init__": "[\"zero\", {}]", 
        "eps": "2e-05", 
        "fix_gamma": "False", 
        "momentum": "0.9"
      }, 
      "inputs": []
    }, 
    {
      "op": "null", 
      "name": "stage1_unit3_bn3_moving_var", 
      "attrs": {
        "__init__": "[\"one\", {}]", 
        "eps": "2e-05", 
        "fix_gamma": "False", 
        "momentum": "0.9"
      }, 
      "inputs": []
    }, 
    {
      "op": "BatchNorm", 
      "name": "stage1_unit3_bn3", 
      "attrs": {
        "eps": "2e-05", 
        "fix_gamma": "False", 
        "momentum": "0.9"
      }, 
      "inputs": [[83, 0, 0], [84, 0, 0], [85, 0, 0], [86, 0, 1], [87, 0, 1]]
    }, 
    {
      "op": "elemwise_add", 
      "name": "_plus2", 
      "inputs": [[88, 0, 0], [65, 0, 0]]
    }, 
    {
      "op": "Activation", 
      "name": "stage1_unit3_relu3", 
      "attrs": {"act_type": "relu"}, 
      "inputs": [[89, 0, 0]]
    }, 
    {
      "op": "null", 
      "name": "stage2_unit1_conv1_weight", 
      "attrs": {
        "kernel": "(1, 1)", 
        "no_bias": "True", 
        "num_filter": "128", 
        "pad": "(0, 0)", 
        "stride": "(1, 1)", 
        "workspace": "256"
      }, 
      "inputs": []
    }, 
    {
      "op": "Convolution", 
      "name": "stage2_unit1_conv1", 
      "attrs": {
        "kernel": "(1, 1)", 
        "no_bias": "True", 
        "num_filter": "128", 
        "pad": "(0, 0)", 
        "stride": "(1, 1)", 
        "workspace": "256"
      }, 
      "inputs": [[90, 0, 0], [91, 0, 0]]
    }, 
    {
      "op": "null", 
      "name": "stage2_unit1_bn1_gamma", 
      "attrs": {
        "eps": "2e-05", 
        "fix_gamma": "False", 
        "momentum": "0.9"
      }, 
      "inputs": []
    }, 
    {
      "op": "null", 
      "name": "stage2_unit1_bn1_beta", 
      "attrs": {
        "eps": "2e-05", 
        "fix_gamma": "False", 
        "momentum": "0.9"
      }, 
      "inputs": []
    }, 
    {
      "op": "null", 
      "name": "stage2_unit1_bn1_moving_mean", 
      "attrs": {
        "__init__": "[\"zero\", {}]", 
        "eps": "2e-05", 
        "fix_gamma": "False", 
        "momentum": "0.9"
      }, 
      "inputs": []
    }, 
    {
      "op": "null", 
      "name": "stage2_unit1_bn1_moving_var", 
      "attrs": {
        "__init__": "[\"one\", {}]", 
        "eps": "2e-05", 
        "fix_gamma": "False", 
        "momentum": "0.9"
      }, 
      "inputs": []
    }, 
    {
      "op": "BatchNorm", 
      "name": "stage2_unit1_bn1", 
      "attrs": {
        "eps": "2e-05", 
        "fix_gamma": "False", 
        "momentum": "0.9"
      }, 
      "inputs": [[92, 0, 0], [93, 0, 0], [94, 0, 0], [95, 0, 1], [96, 0, 1]]
    }, 
    {
      "op": "Activation", 
      "name": "stage2_unit1_relu1", 
      "attrs": {"act_type": "relu"}, 
      "inputs": [[97, 0, 0]]
    }, 
    {
      "op": "null", 
      "name": "stage2_unit1_conv2_weight", 
      "attrs": {
        "kernel": "(3, 3)", 
        "no_bias": "True", 
        "num_filter": "128", 
        "pad": "(1, 1)", 
        "stride": "(1, 1)", 
        "workspace": "256"
      }, 
      "inputs": []
    }, 
    {
      "op": "Convolution", 
      "name": "stage2_unit1_conv2", 
      "attrs": {
        "kernel": "(3, 3)", 
        "no_bias": "True", 
        "num_filter": "128", 
        "pad": "(1, 1)", 
        "stride": "(1, 1)", 
        "workspace": "256"
      }, 
      "inputs": [[98, 0, 0], [99, 0, 0]]
    }, 
    {
      "op": "null", 
      "name": "stage2_unit1_bn2_gamma", 
      "attrs": {
        "eps": "2e-05", 
        "fix_gamma": "False", 
        "momentum": "0.9"
      }, 
      "inputs": []
    }, 
    {
      "op": "null", 
      "name": "stage2_unit1_bn2_beta", 
      "attrs": {
        "eps": "2e-05", 
        "fix_gamma": "False", 
        "momentum": "0.9"
      }, 
      "inputs": []
    }, 
    {
      "op": "null", 
      "name": "stage2_unit1_bn2_moving_mean", 
      "attrs": {
        "__init__": "[\"zero\", {}]", 
        "eps": "2e-05", 
        "fix_gamma": "False", 
        "momentum": "0.9"
      }, 
      "inputs": []
    }, 
    {
      "op": "null", 
      "name": "stage2_unit1_bn2_moving_var", 
      "attrs": {
        "__init__": "[\"one\", {}]", 
        "eps": "2e-05", 
        "fix_gamma": "False", 
        "momentum": "0.9"
      }, 
      "inputs": []
    }, 
    {
      "op": "BatchNorm", 
      "name": "stage2_unit1_bn2", 
      "attrs": {
        "eps": "2e-05", 
        "fix_gamma": "False", 
        "momentum": "0.9"
      }, 
      "inputs": [[100, 0, 0], [101, 0, 0], [102, 0, 0], [103, 0, 1], [104, 0, 1]]
    }, 
    {
      "op": "Activation", 
      "name": "stage2_unit1_relu2", 
      "attrs": {"act_type": "relu"}, 
      "inputs": [[105, 0, 0]]
    }, 
    {
      "op": "null", 
      "name": "stage2_unit1_conv3_weight", 
      "attrs": {
        "kernel": "(1, 1)", 
        "no_bias": "True", 
        "num_filter": "512", 
        "pad": "(0, 0)", 
        "stride": "(2, 2)", 
        "workspace": "256"
      }, 
      "inputs": []
    }, 
    {
      "op": "Convolution", 
      "name": "stage2_unit1_conv3", 
      "attrs": {
        "kernel": "(1, 1)", 
        "no_bias": "True", 
        "num_filter": "512", 
        "pad": "(0, 0)", 
        "stride": "(2, 2)", 
        "workspace": "256"
      }, 
      "inputs": [[106, 0, 0], [107, 0, 0]]
    }, 
    {
      "op": "null", 
      "name": "stage2_unit1_bn3_gamma", 
      "attrs": {
        "eps": "2e-05", 
        "fix_gamma": "False", 
        "momentum": "0.9"
      }, 
      "inputs": []
    }, 
    {
      "op": "null", 
      "name": "stage2_unit1_bn3_beta", 
      "attrs": {
        "eps": "2e-05", 
        "fix_gamma": "False", 
        "momentum": "0.9"
      }, 
      "inputs": []
    }, 
    {
      "op": "null", 
      "name": "stage2_unit1_bn3_moving_mean", 
      "attrs": {
        "__init__": "[\"zero\", {}]", 
        "eps": "2e-05", 
        "fix_gamma": "False", 
        "momentum": "0.9"
      }, 
      "inputs": []
    }, 
    {
      "op": "null", 
      "name": "stage2_unit1_bn3_moving_var", 
      "attrs": {
        "__init__": "[\"one\", {}]", 
        "eps": "2e-05", 
        "fix_gamma": "False", 
        "momentum": "0.9"
      }, 
      "inputs": []
    }, 
    {
      "op": "BatchNorm", 
      "name": "stage2_unit1_bn3", 
      "attrs": {
        "eps": "2e-05", 
        "fix_gamma": "False", 
        "momentum": "0.9"
      }, 
      "inputs": [[108, 0, 0], [109, 0, 0], [110, 0, 0], [111, 0, 1], [112, 0, 1]]
    }, 
    {
      "op": "null", 
      "name": "stage2_unit1_conv1sc_weight", 
      "attrs": {
        "kernel": "(1, 1)", 
        "no_bias": "True", 
        "num_filter": "512", 
        "stride": "(2, 2)", 
        "workspace": "256"
      }, 
      "inputs": []
    }, 
    {
      "op": "Convolution", 
      "name": "stage2_unit1_conv1sc", 
      "attrs": {
        "kernel": "(1, 1)", 
        "no_bias": "True", 
        "num_filter": "512", 
        "stride": "(2, 2)", 
        "workspace": "256"
      }, 
      "inputs": [[90, 0, 0], [114, 0, 0]]
    }, 
    {
      "op": "null", 
      "name": "stage2_unit1_sc_gamma", 
      "attrs": {
        "eps": "2e-05", 
        "fix_gamma": "False", 
        "momentum": "0.9"
      }, 
      "inputs": []
    }, 
    {
      "op": "null", 
      "name": "stage2_unit1_sc_beta", 
      "attrs": {
        "eps": "2e-05", 
        "fix_gamma": "False", 
        "momentum": "0.9"
      }, 
      "inputs": []
    }, 
    {
      "op": "null", 
      "name": "stage2_unit1_sc_moving_mean", 
      "attrs": {
        "__init__": "[\"zero\", {}]", 
        "eps": "2e-05", 
        "fix_gamma": "False", 
        "momentum": "0.9"
      }, 
      "inputs": []
    }, 
    {
      "op": "null", 
      "name": "stage2_unit1_sc_moving_var", 
      "attrs": {
        "__init__": "[\"one\", {}]", 
        "eps": "2e-05", 
        "fix_gamma": "False", 
        "momentum": "0.9"
      }, 
      "inputs": []
    }, 
    {
      "op": "BatchNorm", 
      "name": "stage2_unit1_sc", 
      "attrs": {
        "eps": "2e-05", 
        "fix_gamma": "False", 
        "momentum": "0.9"
      }, 
      "inputs": [[115, 0, 0], [116, 0, 0], [117, 0, 0], [118, 0, 1], [119, 0, 1]]
    }, 
    {
      "op": "elemwise_add", 
      "name": "_plus3", 
      "inputs": [[113, 0, 0], [120, 0, 0]]
    }, 
    {
      "op": "Activation", 
      "name": "stage2_unit1_relu3", 
      "attrs": {"act_type": "relu"}, 
      "inputs": [[121, 0, 0]]
    }, 
    {
      "op": "null", 
      "name": "stage2_unit2_conv1_weight", 
      "attrs": {
        "kernel": "(1, 1)", 
        "no_bias": "True", 
        "num_filter": "128", 
        "pad": "(0, 0)", 
        "stride": "(1, 1)", 
        "workspace": "256"
      }, 
      "inputs": []
    }, 
    {
      "op": "Convolution", 
      "name": "stage2_unit2_conv1", 
      "attrs": {
        "kernel": "(1, 1)", 
        "no_bias": "True", 
        "num_filter": "128", 
        "pad": "(0, 0)", 
        "stride": "(1, 1)", 
        "workspace": "256"
      }, 
      "inputs": [[122, 0, 0], [123, 0, 0]]
    }, 
    {
      "op": "null", 
      "name": "stage2_unit2_bn1_gamma", 
      "attrs": {
        "eps": "2e-05", 
        "fix_gamma": "False", 
        "momentum": "0.9"
      }, 
      "inputs": []
    }, 
    {
      "op": "null", 
      "name": "stage2_unit2_bn1_beta", 
      "attrs": {
        "eps": "2e-05", 
        "fix_gamma": "False", 
        "momentum": "0.9"
      }, 
      "inputs": []
    }, 
    {
      "op": "null", 
      "name": "stage2_unit2_bn1_moving_mean", 
      "attrs": {
        "__init__": "[\"zero\", {}]", 
        "eps": "2e-05", 
        "fix_gamma": "False", 
        "momentum": "0.9"
      }, 
      "inputs": []
    }, 
    {
      "op": "null", 
      "name": "stage2_unit2_bn1_moving_var", 
      "attrs": {
        "__init__": "[\"one\", {}]", 
        "eps": "2e-05", 
        "fix_gamma": "False", 
        "momentum": "0.9"
      }, 
      "inputs": []
    }, 
    {
      "op": "BatchNorm", 
      "name": "stage2_unit2_bn1", 
      "attrs": {
        "eps": "2e-05", 
        "fix_gamma": "False", 
        "momentum": "0.9"
      }, 
      "inputs": [[124, 0, 0], [125, 0, 0], [126, 0, 0], [127, 0, 1], [128, 0, 1]]
    }, 
    {
      "op": "Activation", 
      "name": "stage2_unit2_relu1", 
      "attrs": {"act_type": "relu"}, 
      "inputs": [[129, 0, 0]]
    }, 
    {
      "op": "null", 
      "name": "stage2_unit2_conv2_weight", 
      "attrs": {
        "kernel": "(3, 3)", 
        "no_bias": "True", 
        "num_filter": "128", 
        "pad": "(1, 1)", 
        "stride": "(1, 1)", 
        "workspace": "256"
      }, 
      "inputs": []
    }, 
    {
      "op": "Convolution", 
      "name": "stage2_unit2_conv2", 
      "attrs": {
        "kernel": "(3, 3)", 
        "no_bias": "True", 
        "num_filter": "128", 
        "pad": "(1, 1)", 
        "stride": "(1, 1)", 
        "workspace": "256"
      }, 
      "inputs": [[130, 0, 0], [131, 0, 0]]
    }, 
    {
      "op": "null", 
      "name": "stage2_unit2_bn2_gamma", 
      "attrs": {
        "eps": "2e-05", 
        "fix_gamma": "False", 
        "momentum": "0.9"
      }, 
      "inputs": []
    }, 
    {
      "op": "null", 
      "name": "stage2_unit2_bn2_beta", 
      "attrs": {
        "eps": "2e-05", 
        "fix_gamma": "False", 
        "momentum": "0.9"
      }, 
      "inputs": []
    }, 
    {
      "op": "null", 
      "name": "stage2_unit2_bn2_moving_mean", 
      "attrs": {
        "__init__": "[\"zero\", {}]", 
        "eps": "2e-05", 
        "fix_gamma": "False", 
        "momentum": "0.9"
      }, 
      "inputs": []
    }, 
    {
      "op": "null", 
      "name": "stage2_unit2_bn2_moving_var", 
      "attrs": {
        "__init__": "[\"one\", {}]", 
        "eps": "2e-05", 
        "fix_gamma": "False", 
        "momentum": "0.9"
      }, 
      "inputs": []
    }, 
    {
      "op": "BatchNorm", 
      "name": "stage2_unit2_bn2", 
      "attrs": {
        "eps": "2e-05", 
        "fix_gamma": "False", 
        "momentum": "0.9"
      }, 
      "inputs": [[132, 0, 0], [133, 0, 0], [134, 0, 0], [135, 0, 1], [136, 0, 1]]
    }, 
    {
      "op": "Activation", 
      "name": "stage2_unit2_relu2", 
      "attrs": {"act_type": "relu"}, 
      "inputs": [[137, 0, 0]]
    }, 
    {
      "op": "null", 
      "name": "stage2_unit2_conv3_weight", 
      "attrs": {
        "kernel": "(1, 1)", 
        "no_bias": "True", 
        "num_filter": "512", 
        "pad": "(0, 0)", 
        "stride": "(1, 1)", 
        "workspace": "256"
      }, 
      "inputs": []
    }, 
    {
      "op": "Convolution", 
      "name": "stage2_unit2_conv3", 
      "attrs": {
        "kernel": "(1, 1)", 
        "no_bias": "True", 
        "num_filter": "512", 
        "pad": "(0, 0)", 
        "stride": "(1, 1)", 
        "workspace": "256"
      }, 
      "inputs": [[138, 0, 0], [139, 0, 0]]
    }, 
    {
      "op": "null", 
      "name": "stage2_unit2_bn3_gamma", 
      "attrs": {
        "eps": "2e-05", 
        "fix_gamma": "False", 
        "momentum": "0.9"
      }, 
      "inputs": []
    }, 
    {
      "op": "null", 
      "name": "stage2_unit2_bn3_beta", 
      "attrs": {
        "eps": "2e-05", 
        "fix_gamma": "False", 
        "momentum": "0.9"
      }, 
      "inputs": []
    }, 
    {
      "op": "null", 
      "name": "stage2_unit2_bn3_moving_mean", 
      "attrs": {
        "__init__": "[\"zero\", {}]", 
        "eps": "2e-05", 
        "fix_gamma": "False", 
        "momentum": "0.9"
      }, 
      "inputs": []
    }, 
    {
      "op": "null", 
      "name": "stage2_unit2_bn3_moving_var", 
      "attrs": {
        "__init__": "[\"one\", {}]", 
        "eps": "2e-05", 
        "fix_gamma": "False", 
        "momentum": "0.9"
      }, 
      "inputs": []
    }, 
    {
      "op": "BatchNorm", 
      "name": "stage2_unit2_bn3", 
      "attrs": {
        "eps": "2e-05", 
        "fix_gamma": "False", 
        "momentum": "0.9"
      }, 
      "inputs": [[140, 0, 0], [141, 0, 0], [142, 0, 0], [143, 0, 1], [144, 0, 1]]
    }, 
    {
      "op": "elemwise_add", 
      "name": "_plus4", 
      "inputs": [[145, 0, 0], [122, 0, 0]]
    }, 
    {
      "op": "Activation", 
      "name": "stage2_unit2_relu3", 
      "attrs": {"act_type": "relu"}, 
      "inputs": [[146, 0, 0]]
    }, 
    {
      "op": "null", 
      "name": "stage2_unit3_conv1_weight", 
      "attrs": {
        "kernel": "(1, 1)", 
        "no_bias": "True", 
        "num_filter": "128", 
        "pad": "(0, 0)", 
        "stride": "(1, 1)", 
        "workspace": "256"
      }, 
      "inputs": []
    }, 
    {
      "op": "Convolution", 
      "name": "stage2_unit3_conv1", 
      "attrs": {
        "kernel": "(1, 1)", 
        "no_bias": "True", 
        "num_filter": "128", 
        "pad": "(0, 0)", 
        "stride": "(1, 1)", 
        "workspace": "256"
      }, 
      "inputs": [[147, 0, 0], [148, 0, 0]]
    }, 
    {
      "op": "null", 
      "name": "stage2_unit3_bn1_gamma", 
      "attrs": {
        "eps": "2e-05", 
        "fix_gamma": "False", 
        "momentum": "0.9"
      }, 
      "inputs": []
    }, 
    {
      "op": "null", 
      "name": "stage2_unit3_bn1_beta", 
      "attrs": {
        "eps": "2e-05", 
        "fix_gamma": "False", 
        "momentum": "0.9"
      }, 
      "inputs": []
    }, 
    {
      "op": "null", 
      "name": "stage2_unit3_bn1_moving_mean", 
      "attrs": {
        "__init__": "[\"zero\", {}]", 
        "eps": "2e-05", 
        "fix_gamma": "False", 
        "momentum": "0.9"
      }, 
      "inputs": []
    }, 
    {
      "op": "null", 
      "name": "stage2_unit3_bn1_moving_var", 
      "attrs": {
        "__init__": "[\"one\", {}]", 
        "eps": "2e-05", 
        "fix_gamma": "False", 
        "momentum": "0.9"
      }, 
      "inputs": []
    }, 
    {
      "op": "BatchNorm", 
      "name": "stage2_unit3_bn1", 
      "attrs": {
        "eps": "2e-05", 
        "fix_gamma": "False", 
        "momentum": "0.9"
      }, 
      "inputs": [[149, 0, 0], [150, 0, 0], [151, 0, 0], [152, 0, 1], [153, 0, 1]]
    }, 
    {
      "op": "Activation", 
      "name": "stage2_unit3_relu1", 
      "attrs": {"act_type": "relu"}, 
      "inputs": [[154, 0, 0]]
    }, 
    {
      "op": "null", 
      "name": "stage2_unit3_conv2_weight", 
      "attrs": {
        "kernel": "(3, 3)", 
        "no_bias": "True", 
        "num_filter": "128", 
        "pad": "(1, 1)", 
        "stride": "(1, 1)", 
        "workspace": "256"
      }, 
      "inputs": []
    }, 
    {
      "op": "Convolution", 
      "name": "stage2_unit3_conv2", 
      "attrs": {
        "kernel": "(3, 3)", 
        "no_bias": "True", 
        "num_filter": "128", 
        "pad": "(1, 1)", 
        "stride": "(1, 1)", 
        "workspace": "256"
      }, 
      "inputs": [[155, 0, 0], [156, 0, 0]]
    }, 
    {
      "op": "null", 
      "name": "stage2_unit3_bn2_gamma", 
      "attrs": {
        "eps": "2e-05", 
        "fix_gamma": "False", 
        "momentum": "0.9"
      }, 
      "inputs": []
    }, 
    {
      "op": "null", 
      "name": "stage2_unit3_bn2_beta", 
      "attrs": {
        "eps": "2e-05", 
        "fix_gamma": "False", 
        "momentum": "0.9"
      }, 
      "inputs": []
    }, 
    {
      "op": "null", 
      "name": "stage2_unit3_bn2_moving_mean", 
      "attrs": {
        "__init__": "[\"zero\", {}]", 
        "eps": "2e-05", 
        "fix_gamma": "False", 
        "momentum": "0.9"
      }, 
      "inputs": []
    }, 
    {
      "op": "null", 
      "name": "stage2_unit3_bn2_moving_var", 
      "attrs": {
        "__init__": "[\"one\", {}]", 
        "eps": "2e-05", 
        "fix_gamma": "False", 
        "momentum": "0.9"
      }, 
      "inputs": []
    }, 
    {
      "op": "BatchNorm", 
      "name": "stage2_unit3_bn2", 
      "attrs": {
        "eps": "2e-05", 
        "fix_gamma": "False", 
        "momentum": "0.9"
      }, 
      "inputs": [[157, 0, 0], [158, 0, 0], [159, 0, 0], [160, 0, 1], [161, 0, 1]]
    }, 
    {
      "op": "Activation", 
      "name": "stage2_unit3_relu2", 
      "attrs": {"act_type": "relu"}, 
      "inputs": [[162, 0, 0]]
    }, 
    {
      "op": "null", 
      "name": "stage2_unit3_conv3_weight", 
      "attrs": {
        "kernel": "(1, 1)", 
        "no_bias": "True", 
        "num_filter": "512", 
        "pad": "(0, 0)", 
        "stride": "(1, 1)", 
        "workspace": "256"
      }, 
      "inputs": []
    }, 
    {
      "op": "Convolution", 
      "name": "stage2_unit3_conv3", 
      "attrs": {
        "kernel": "(1, 1)", 
        "no_bias": "True", 
        "num_filter": "512", 
        "pad": "(0, 0)", 
        "stride": "(1, 1)", 
        "workspace": "256"
      }, 
      "inputs": [[163, 0, 0], [164, 0, 0]]
    }, 
    {
      "op": "null", 
      "name": "stage2_unit3_bn3_gamma", 
      "attrs": {
        "eps": "2e-05", 
        "fix_gamma": "False", 
        "momentum": "0.9"
      }, 
      "inputs": []
    }, 
    {
      "op": "null", 
      "name": "stage2_unit3_bn3_beta", 
      "attrs": {
        "eps": "2e-05", 
        "fix_gamma": "False", 
        "momentum": "0.9"
      }, 
      "inputs": []
    }, 
    {
      "op": "null", 
      "name": "stage2_unit3_bn3_moving_mean", 
      "attrs": {
        "__init__": "[\"zero\", {}]", 
        "eps": "2e-05", 
        "fix_gamma": "False", 
        "momentum": "0.9"
      }, 
      "inputs": []
    }, 
    {
      "op": "null", 
      "name": "stage2_unit3_bn3_moving_var", 
      "attrs": {
        "__init__": "[\"one\", {}]", 
        "eps": "2e-05", 
        "fix_gamma": "False", 
        "momentum": "0.9"
      }, 
      "inputs": []
    }, 
    {
      "op": "BatchNorm", 
      "name": "stage2_unit3_bn3", 
      "attrs": {
        "eps": "2e-05", 
        "fix_gamma": "False", 
        "momentum": "0.9"
      }, 
      "inputs": [[165, 0, 0], [166, 0, 0], [167, 0, 0], [168, 0, 1], [169, 0, 1]]
    }, 
    {
      "op": "elemwise_add", 
      "name": "_plus5", 
      "inputs": [[170, 0, 0], [147, 0, 0]]
    }, 
    {
      "op": "Activation", 
      "name": "stage2_unit3_relu3", 
      "attrs": {"act_type": "relu"}, 
      "inputs": [[171, 0, 0]]
    }, 
    {
      "op": "null", 
      "name": "stage2_unit4_conv1_weight", 
      "attrs": {
        "kernel": "(1, 1)", 
        "no_bias": "True", 
        "num_filter": "128", 
        "pad": "(0, 0)", 
        "stride": "(1, 1)", 
        "workspace": "256"
      }, 
      "inputs": []
    }, 
    {
      "op": "Convolution", 
      "name": "stage2_unit4_conv1", 
      "attrs": {
        "kernel": "(1, 1)", 
        "no_bias": "True", 
        "num_filter": "128", 
        "pad": "(0, 0)", 
        "stride": "(1, 1)", 
        "workspace": "256"
      }, 
      "inputs": [[172, 0, 0], [173, 0, 0]]
    }, 
    {
      "op": "null", 
      "name": "stage2_unit4_bn1_gamma", 
      "attrs": {
        "eps": "2e-05", 
        "fix_gamma": "False", 
        "momentum": "0.9"
      }, 
      "inputs": []
    }, 
    {
      "op": "null", 
      "name": "stage2_unit4_bn1_beta", 
      "attrs": {
        "eps": "2e-05", 
        "fix_gamma": "False", 
        "momentum": "0.9"
      }, 
      "inputs": []
    }, 
    {
      "op": "null", 
      "name": "stage2_unit4_bn1_moving_mean", 
      "attrs": {
        "__init__": "[\"zero\", {}]", 
        "eps": "2e-05", 
        "fix_gamma": "False", 
        "momentum": "0.9"
      }, 
      "inputs": []
    }, 
    {
      "op": "null", 
      "name": "stage2_unit4_bn1_moving_var", 
      "attrs": {
        "__init__": "[\"one\", {}]", 
        "eps": "2e-05", 
        "fix_gamma": "False", 
        "momentum": "0.9"
      }, 
      "inputs": []
    }, 
    {
      "op": "BatchNorm", 
      "name": "stage2_unit4_bn1", 
      "attrs": {
        "eps": "2e-05", 
        "fix_gamma": "False", 
        "momentum": "0.9"
      }, 
      "inputs": [[174, 0, 0], [175, 0, 0], [176, 0, 0], [177, 0, 1], [178, 0, 1]]
    }, 
    {
      "op": "Activation", 
      "name": "stage2_unit4_relu1", 
      "attrs": {"act_type": "relu"}, 
      "inputs": [[179, 0, 0]]
    }, 
    {
      "op": "null", 
      "name": "stage2_unit4_conv2_weight", 
      "attrs": {
        "kernel": "(3, 3)", 
        "no_bias": "True", 
        "num_filter": "128", 
        "pad": "(1, 1)", 
        "stride": "(1, 1)", 
        "workspace": "256"
      }, 
      "inputs": []
    }, 
    {
      "op": "Convolution", 
      "name": "stage2_unit4_conv2", 
      "attrs": {
        "kernel": "(3, 3)", 
        "no_bias": "True", 
        "num_filter": "128", 
        "pad": "(1, 1)", 
        "stride": "(1, 1)", 
        "workspace": "256"
      }, 
      "inputs": [[180, 0, 0], [181, 0, 0]]
    }, 
    {
      "op": "null", 
      "name": "stage2_unit4_bn2_gamma", 
      "attrs": {
        "eps": "2e-05", 
        "fix_gamma": "False", 
        "momentum": "0.9"
      }, 
      "inputs": []
    }, 
    {
      "op": "null", 
      "name": "stage2_unit4_bn2_beta", 
      "attrs": {
        "eps": "2e-05", 
        "fix_gamma": "False", 
        "momentum": "0.9"
      }, 
      "inputs": []
    }, 
    {
      "op": "null", 
      "name": "stage2_unit4_bn2_moving_mean", 
      "attrs": {
        "__init__": "[\"zero\", {}]", 
        "eps": "2e-05", 
        "fix_gamma": "False", 
        "momentum": "0.9"
      }, 
      "inputs": []
    }, 
    {
      "op": "null", 
      "name": "stage2_unit4_bn2_moving_var", 
      "attrs": {
        "__init__": "[\"one\", {}]", 
        "eps": "2e-05", 
        "fix_gamma": "False", 
        "momentum": "0.9"
      }, 
      "inputs": []
    }, 
    {
      "op": "BatchNorm", 
      "name": "stage2_unit4_bn2", 
      "attrs": {
        "eps": "2e-05", 
        "fix_gamma": "False", 
        "momentum": "0.9"
      }, 
      "inputs": [[182, 0, 0], [183, 0, 0], [184, 0, 0], [185, 0, 1], [186, 0, 1]]
    }, 
    {
      "op": "Activation", 
      "name": "stage2_unit4_relu2", 
      "attrs": {"act_type": "relu"}, 
      "inputs": [[187, 0, 0]]
    }, 
    {
      "op": "null", 
      "name": "stage2_unit4_conv3_weight", 
      "attrs": {
        "kernel": "(1, 1)", 
        "no_bias": "True", 
        "num_filter": "512", 
        "pad": "(0, 0)", 
        "stride": "(1, 1)", 
        "workspace": "256"
      }, 
      "inputs": []
    }, 
    {
      "op": "Convolution", 
      "name": "stage2_unit4_conv3", 
      "attrs": {
        "kernel": "(1, 1)", 
        "no_bias": "True", 
        "num_filter": "512", 
        "pad": "(0, 0)", 
        "stride": "(1, 1)", 
        "workspace": "256"
      }, 
      "inputs": [[188, 0, 0], [189, 0, 0]]
    }, 
    {
      "op": "null", 
      "name": "stage2_unit4_bn3_gamma", 
      "attrs": {
        "eps": "2e-05", 
        "fix_gamma": "False", 
        "momentum": "0.9"
      }, 
      "inputs": []
    }, 
    {
      "op": "null", 
      "name": "stage2_unit4_bn3_beta", 
      "attrs": {
        "eps": "2e-05", 
        "fix_gamma": "False", 
        "momentum": "0.9"
      }, 
      "inputs": []
    }, 
    {
      "op": "null", 
      "name": "stage2_unit4_bn3_moving_mean", 
      "attrs": {
        "__init__": "[\"zero\", {}]", 
        "eps": "2e-05", 
        "fix_gamma": "False", 
        "momentum": "0.9"
      }, 
      "inputs": []
    }, 
    {
      "op": "null", 
      "name": "stage2_unit4_bn3_moving_var", 
      "attrs": {
        "__init__": "[\"one\", {}]", 
        "eps": "2e-05", 
        "fix_gamma": "False", 
        "momentum": "0.9"
      }, 
      "inputs": []
    }, 
    {
      "op": "BatchNorm", 
      "name": "stage2_unit4_bn3", 
      "attrs": {
        "eps": "2e-05", 
        "fix_gamma": "False", 
        "momentum": "0.9"
      }, 
      "inputs": [[190, 0, 0], [191, 0, 0], [192, 0, 0], [193, 0, 1], [194, 0, 1]]
    }, 
    {
      "op": "elemwise_add", 
      "name": "_plus6", 
      "inputs": [[195, 0, 0], [172, 0, 0]]
    }, 
    {
      "op": "Activation", 
      "name": "stage2_unit4_relu3", 
      "attrs": {"act_type": "relu"}, 
      "inputs": [[196, 0, 0]]
    }, 
    {
      "op": "null", 
      "name": "stage2_unit5_conv1_weight", 
      "attrs": {
        "kernel": "(1, 1)", 
        "no_bias": "True", 
        "num_filter": "128", 
        "pad": "(0, 0)", 
        "stride": "(1, 1)", 
        "workspace": "256"
      }, 
      "inputs": []
    }, 
    {
      "op": "Convolution", 
      "name": "stage2_unit5_conv1", 
      "attrs": {
        "kernel": "(1, 1)", 
        "no_bias": "True", 
        "num_filter": "128", 
        "pad": "(0, 0)", 
        "stride": "(1, 1)", 
        "workspace": "256"
      }, 
      "inputs": [[197, 0, 0], [198, 0, 0]]
    }, 
    {
      "op": "null", 
      "name": "stage2_unit5_bn1_gamma", 
      "attrs": {
        "eps": "2e-05", 
        "fix_gamma": "False", 
        "momentum": "0.9"
      }, 
      "inputs": []
    }, 
    {
      "op": "null", 
      "name": "stage2_unit5_bn1_beta", 
      "attrs": {
        "eps": "2e-05", 
        "fix_gamma": "False", 
        "momentum": "0.9"
      }, 
      "inputs": []
    }, 
    {
      "op": "null", 
      "name": "stage2_unit5_bn1_moving_mean", 
      "attrs": {
        "__init__": "[\"zero\", {}]", 
        "eps": "2e-05", 
        "fix_gamma": "False", 
        "momentum": "0.9"
      }, 
      "inputs": []
    }, 
    {
      "op": "null", 
      "name": "stage2_unit5_bn1_moving_var", 
      "attrs": {
        "__init__": "[\"one\", {}]", 
        "eps": "2e-05", 
        "fix_gamma": "False", 
        "momentum": "0.9"
      }, 
      "inputs": []
    }, 
    {
      "op": "BatchNorm", 
      "name": "stage2_unit5_bn1", 
      "attrs": {
        "eps": "2e-05", 
        "fix_gamma": "False", 
        "momentum": "0.9"
      }, 
      "inputs": [[199, 0, 0], [200, 0, 0], [201, 0, 0], [202, 0, 1], [203, 0, 1]]
    }, 
    {
      "op": "Activation", 
      "name": "stage2_unit5_relu1", 
      "attrs": {"act_type": "relu"}, 
      "inputs": [[204, 0, 0]]
    }, 
    {
      "op": "null", 
      "name": "stage2_unit5_conv2_weight", 
      "attrs": {
        "kernel": "(3, 3)", 
        "no_bias": "True", 
        "num_filter": "128", 
        "pad": "(1, 1)", 
        "stride": "(1, 1)", 
        "workspace": "256"
      }, 
      "inputs": []
    }, 
    {
      "op": "Convolution", 
      "name": "stage2_unit5_conv2", 
      "attrs": {
        "kernel": "(3, 3)", 
        "no_bias": "True", 
        "num_filter": "128", 
        "pad": "(1, 1)", 
        "stride": "(1, 1)", 
        "workspace": "256"
      }, 
      "inputs": [[205, 0, 0], [206, 0, 0]]
    }, 
    {
      "op": "null", 
      "name": "stage2_unit5_bn2_gamma", 
      "attrs": {
        "eps": "2e-05", 
        "fix_gamma": "False", 
        "momentum": "0.9"
      }, 
      "inputs": []
    }, 
    {
      "op": "null", 
      "name": "stage2_unit5_bn2_beta", 
      "attrs": {
        "eps": "2e-05", 
        "fix_gamma": "False", 
        "momentum": "0.9"
      }, 
      "inputs": []
    }, 
    {
      "op": "null", 
      "name": "stage2_unit5_bn2_moving_mean", 
      "attrs": {
        "__init__": "[\"zero\", {}]", 
        "eps": "2e-05", 
        "fix_gamma": "False", 
        "momentum": "0.9"
      }, 
      "inputs": []
    }, 
    {
      "op": "null", 
      "name": "stage2_unit5_bn2_moving_var", 
      "attrs": {
        "__init__": "[\"one\", {}]", 
        "eps": "2e-05", 
        "fix_gamma": "False", 
        "momentum": "0.9"
      }, 
      "inputs": []
    }, 
    {
      "op": "BatchNorm", 
      "name": "stage2_unit5_bn2", 
      "attrs": {
        "eps": "2e-05", 
        "fix_gamma": "False", 
        "momentum": "0.9"
      }, 
      "inputs": [[207, 0, 0], [208, 0, 0], [209, 0, 0], [210, 0, 1], [211, 0, 1]]
    }, 
    {
      "op": "Activation", 
      "name": "stage2_unit5_relu2", 
      "attrs": {"act_type": "relu"}, 
      "inputs": [[212, 0, 0]]
    }, 
    {
      "op": "null", 
      "name": "stage2_unit5_conv3_weight", 
      "attrs": {
        "kernel": "(1, 1)", 
        "no_bias": "True", 
        "num_filter": "512", 
        "pad": "(0, 0)", 
        "stride": "(1, 1)", 
        "workspace": "256"
      }, 
      "inputs": []
    }, 
    {
      "op": "Convolution", 
      "name": "stage2_unit5_conv3", 
      "attrs": {
        "kernel": "(1, 1)", 
        "no_bias": "True", 
        "num_filter": "512", 
        "pad": "(0, 0)", 
        "stride": "(1, 1)", 
        "workspace": "256"
      }, 
      "inputs": [[213, 0, 0], [214, 0, 0]]
    }, 
    {
      "op": "null", 
      "name": "stage2_unit5_bn3_gamma", 
      "attrs": {
        "eps": "2e-05", 
        "fix_gamma": "False", 
        "momentum": "0.9"
      }, 
      "inputs": []
    }, 
    {
      "op": "null", 
      "name": "stage2_unit5_bn3_beta", 
      "attrs": {
        "eps": "2e-05", 
        "fix_gamma": "False", 
        "momentum": "0.9"
      }, 
      "inputs": []
    }, 
    {
      "op": "null", 
      "name": "stage2_unit5_bn3_moving_mean", 
      "attrs": {
        "__init__": "[\"zero\", {}]", 
        "eps": "2e-05", 
        "fix_gamma": "False", 
        "momentum": "0.9"
      }, 
      "inputs": []
    }, 
    {
      "op": "null", 
      "name": "stage2_unit5_bn3_moving_var", 
      "attrs": {
        "__init__": "[\"one\", {}]", 
        "eps": "2e-05", 
        "fix_gamma": "False", 
        "momentum": "0.9"
      }, 
      "inputs": []
    }, 
    {
      "op": "BatchNorm", 
      "name": "stage2_unit5_bn3", 
      "attrs": {
        "eps": "2e-05", 
        "fix_gamma": "False", 
        "momentum": "0.9"
      }, 
      "inputs": [[215, 0, 0], [216, 0, 0], [217, 0, 0], [218, 0, 1], [219, 0, 1]]
    }, 
    {
      "op": "elemwise_add", 
      "name": "_plus7", 
      "inputs": [[220, 0, 0], [197, 0, 0]]
    }, 
    {
      "op": "Activation", 
      "name": "stage2_unit5_relu3", 
      "attrs": {"act_type": "relu"}, 
      "inputs": [[221, 0, 0]]
    }, 
    {
      "op": "null", 
      "name": "stage2_unit6_conv1_weight", 
      "attrs": {
        "kernel": "(1, 1)", 
        "no_bias": "True", 
        "num_filter": "128", 
        "pad": "(0, 0)", 
        "stride": "(1, 1)", 
        "workspace": "256"
      }, 
      "inputs": []
    }, 
    {
      "op": "Convolution", 
      "name": "stage2_unit6_conv1", 
      "attrs": {
        "kernel": "(1, 1)", 
        "no_bias": "True", 
        "num_filter": "128", 
        "pad": "(0, 0)", 
        "stride": "(1, 1)", 
        "workspace": "256"
      }, 
      "inputs": [[222, 0, 0], [223, 0, 0]]
    }, 
    {
      "op": "null", 
      "name": "stage2_unit6_bn1_gamma", 
      "attrs": {
        "eps": "2e-05", 
        "fix_gamma": "False", 
        "momentum": "0.9"
      }, 
      "inputs": []
    }, 
    {
      "op": "null", 
      "name": "stage2_unit6_bn1_beta", 
      "attrs": {
        "eps": "2e-05", 
        "fix_gamma": "False", 
        "momentum": "0.9"
      }, 
      "inputs": []
    }, 
    {
      "op": "null", 
      "name": "stage2_unit6_bn1_moving_mean", 
      "attrs": {
        "__init__": "[\"zero\", {}]", 
        "eps": "2e-05", 
        "fix_gamma": "False", 
        "momentum": "0.9"
      }, 
      "inputs": []
    }, 
    {
      "op": "null", 
      "name": "stage2_unit6_bn1_moving_var", 
      "attrs": {
        "__init__": "[\"one\", {}]", 
        "eps": "2e-05", 
        "fix_gamma": "False", 
        "momentum": "0.9"
      }, 
      "inputs": []
    }, 
    {
      "op": "BatchNorm", 
      "name": "stage2_unit6_bn1", 
      "attrs": {
        "eps": "2e-05", 
        "fix_gamma": "False", 
        "momentum": "0.9"
      }, 
      "inputs": [[224, 0, 0], [225, 0, 0], [226, 0, 0], [227, 0, 1], [228, 0, 1]]
    }, 
    {
      "op": "Activation", 
      "name": "stage2_unit6_relu1", 
      "attrs": {"act_type": "relu"}, 
      "inputs": [[229, 0, 0]]
    }, 
    {
      "op": "null", 
      "name": "stage2_unit6_conv2_weight", 
      "attrs": {
        "kernel": "(3, 3)", 
        "no_bias": "True", 
        "num_filter": "128", 
        "pad": "(1, 1)", 
        "stride": "(1, 1)", 
        "workspace": "256"
      }, 
      "inputs": []
    }, 
    {
      "op": "Convolution", 
      "name": "stage2_unit6_conv2", 
      "attrs": {
        "kernel": "(3, 3)", 
        "no_bias": "True", 
        "num_filter": "128", 
        "pad": "(1, 1)", 
        "stride": "(1, 1)", 
        "workspace": "256"
      }, 
      "inputs": [[230, 0, 0], [231, 0, 0]]
    }, 
    {
      "op": "null", 
      "name": "stage2_unit6_bn2_gamma", 
      "attrs": {
        "eps": "2e-05", 
        "fix_gamma": "False", 
        "momentum": "0.9"
      }, 
      "inputs": []
    }, 
    {
      "op": "null", 
      "name": "stage2_unit6_bn2_beta", 
      "attrs": {
        "eps": "2e-05", 
        "fix_gamma": "False", 
        "momentum": "0.9"
      }, 
      "inputs": []
    }, 
    {
      "op": "null", 
      "name": "stage2_unit6_bn2_moving_mean", 
      "attrs": {
        "__init__": "[\"zero\", {}]", 
        "eps": "2e-05", 
        "fix_gamma": "False", 
        "momentum": "0.9"
      }, 
      "inputs": []
    }, 
    {
      "op": "null", 
      "name": "stage2_unit6_bn2_moving_var", 
      "attrs": {
        "__init__": "[\"one\", {}]", 
        "eps": "2e-05", 
        "fix_gamma": "False", 
        "momentum": "0.9"
      }, 
      "inputs": []
    }, 
    {
      "op": "BatchNorm", 
      "name": "stage2_unit6_bn2", 
      "attrs": {
        "eps": "2e-05", 
        "fix_gamma": "False", 
        "momentum": "0.9"
      }, 
      "inputs": [[232, 0, 0], [233, 0, 0], [234, 0, 0], [235, 0, 1], [236, 0, 1]]
    }, 
    {
      "op": "Activation", 
      "name": "stage2_unit6_relu2", 
      "attrs": {"act_type": "relu"}, 
      "inputs": [[237, 0, 0]]
    }, 
    {
      "op": "null", 
      "name": "stage2_unit6_conv3_weight", 
      "attrs": {
        "kernel": "(1, 1)", 
        "no_bias": "True", 
        "num_filter": "512", 
        "pad": "(0, 0)", 
        "stride": "(1, 1)", 
        "workspace": "256"
      }, 
      "inputs": []
    }, 
    {
      "op": "Convolution", 
      "name": "stage2_unit6_conv3", 
      "attrs": {
        "kernel": "(1, 1)", 
        "no_bias": "True", 
        "num_filter": "512", 
        "pad": "(0, 0)", 
        "stride": "(1, 1)", 
        "workspace": "256"
      }, 
      "inputs": [[238, 0, 0], [239, 0, 0]]
    }, 
    {
      "op": "null", 
      "name": "stage2_unit6_bn3_gamma", 
      "attrs": {
        "eps": "2e-05", 
        "fix_gamma": "False", 
        "momentum": "0.9"
      }, 
      "inputs": []
    }, 
    {
      "op": "null", 
      "name": "stage2_unit6_bn3_beta", 
      "attrs": {
        "eps": "2e-05", 
        "fix_gamma": "False", 
        "momentum": "0.9"
      }, 
      "inputs": []
    }, 
    {
      "op": "null", 
      "name": "stage2_unit6_bn3_moving_mean", 
      "attrs": {
        "__init__": "[\"zero\", {}]", 
        "eps": "2e-05", 
        "fix_gamma": "False", 
        "momentum": "0.9"
      }, 
      "inputs": []
    }, 
    {
      "op": "null", 
      "name": "stage2_unit6_bn3_moving_var", 
      "attrs": {
        "__init__": "[\"one\", {}]", 
        "eps": "2e-05", 
        "fix_gamma": "False", 
        "momentum": "0.9"
      }, 
      "inputs": []
    }, 
    {
      "op": "BatchNorm", 
      "name": "stage2_unit6_bn3", 
      "attrs": {
        "eps": "2e-05", 
        "fix_gamma": "False", 
        "momentum": "0.9"
      }, 
      "inputs": [[240, 0, 0], [241, 0, 0], [242, 0, 0], [243, 0, 1], [244, 0, 1]]
    }, 
    {
      "op": "elemwise_add", 
      "name": "_plus8", 
      "inputs": [[245, 0, 0], [222, 0, 0]]
    }, 
    {
      "op": "Activation", 
      "name": "stage2_unit6_relu3", 
      "attrs": {"act_type": "relu"}, 
      "inputs": [[246, 0, 0]]
    }, 
    {
      "op": "null", 
      "name": "stage2_unit7_conv1_weight", 
      "attrs": {
        "kernel": "(1, 1)", 
        "no_bias": "True", 
        "num_filter": "128", 
        "pad": "(0, 0)", 
        "stride": "(1, 1)", 
        "workspace": "256"
      }, 
      "inputs": []
    }, 
    {
      "op": "Convolution", 
      "name": "stage2_unit7_conv1", 
      "attrs": {
        "kernel": "(1, 1)", 
        "no_bias": "True", 
        "num_filter": "128", 
        "pad": "(0, 0)", 
        "stride": "(1, 1)", 
        "workspace": "256"
      }, 
      "inputs": [[247, 0, 0], [248, 0, 0]]
    }, 
    {
      "op": "null", 
      "name": "stage2_unit7_bn1_gamma", 
      "attrs": {
        "eps": "2e-05", 
        "fix_gamma": "False", 
        "momentum": "0.9"
      }, 
      "inputs": []
    }, 
    {
      "op": "null", 
      "name": "stage2_unit7_bn1_beta", 
      "attrs": {
        "eps": "2e-05", 
        "fix_gamma": "False", 
        "momentum": "0.9"
      }, 
      "inputs": []
    }, 
    {
      "op": "null", 
      "name": "stage2_unit7_bn1_moving_mean", 
      "attrs": {
        "__init__": "[\"zero\", {}]", 
        "eps": "2e-05", 
        "fix_gamma": "False", 
        "momentum": "0.9"
      }, 
      "inputs": []
    }, 
    {
      "op": "null", 
      "name": "stage2_unit7_bn1_moving_var", 
      "attrs": {
        "__init__": "[\"one\", {}]", 
        "eps": "2e-05", 
        "fix_gamma": "False", 
        "momentum": "0.9"
      }, 
      "inputs": []
    }, 
    {
      "op": "BatchNorm", 
      "name": "stage2_unit7_bn1", 
      "attrs": {
        "eps": "2e-05", 
        "fix_gamma": "False", 
        "momentum": "0.9"
      }, 
      "inputs": [[249, 0, 0], [250, 0, 0], [251, 0, 0], [252, 0, 1], [253, 0, 1]]
    }, 
    {
      "op": "Activation", 
      "name": "stage2_unit7_relu1", 
      "attrs": {"act_type": "relu"}, 
      "inputs": [[254, 0, 0]]
    }, 
    {
      "op": "null", 
      "name": "stage2_unit7_conv2_weight", 
      "attrs": {
        "kernel": "(3, 3)", 
        "no_bias": "True", 
        "num_filter": "128", 
        "pad": "(1, 1)", 
        "stride": "(1, 1)", 
        "workspace": "256"
      }, 
      "inputs": []
    }, 
    {
      "op": "Convolution", 
      "name": "stage2_unit7_conv2", 
      "attrs": {
        "kernel": "(3, 3)", 
        "no_bias": "True", 
        "num_filter": "128", 
        "pad": "(1, 1)", 
        "stride": "(1, 1)", 
        "workspace": "256"
      }, 
      "inputs": [[255, 0, 0], [256, 0, 0]]
    }, 
    {
      "op": "null", 
      "name": "stage2_unit7_bn2_gamma", 
      "attrs": {
        "eps": "2e-05", 
        "fix_gamma": "False", 
        "momentum": "0.9"
      }, 
      "inputs": []
    }, 
    {
      "op": "null", 
      "name": "stage2_unit7_bn2_beta", 
      "attrs": {
        "eps": "2e-05", 
        "fix_gamma": "False", 
        "momentum": "0.9"
      }, 
      "inputs": []
    }, 
    {
      "op": "null", 
      "name": "stage2_unit7_bn2_moving_mean", 
      "attrs": {
        "__init__": "[\"zero\", {}]", 
        "eps": "2e-05", 
        "fix_gamma": "False", 
        "momentum": "0.9"
      }, 
      "inputs": []
    }, 
    {
      "op": "null", 
      "name": "stage2_unit7_bn2_moving_var", 
      "attrs": {
        "__init__": "[\"one\", {}]", 
        "eps": "2e-05", 
        "fix_gamma": "False", 
        "momentum": "0.9"
      }, 
      "inputs": []
    }, 
    {
      "op": "BatchNorm", 
      "name": "stage2_unit7_bn2", 
      "attrs": {
        "eps": "2e-05", 
        "fix_gamma": "False", 
        "momentum": "0.9"
      }, 
      "inputs": [[257, 0, 0], [258, 0, 0], [259, 0, 0], [260, 0, 1], [261, 0, 1]]
    }, 
    {
      "op": "Activation", 
      "name": "stage2_unit7_relu2", 
      "attrs": {"act_type": "relu"}, 
      "inputs": [[262, 0, 0]]
    }, 
    {
      "op": "null", 
      "name": "stage2_unit7_conv3_weight", 
      "attrs": {
        "kernel": "(1, 1)", 
        "no_bias": "True", 
        "num_filter": "512", 
        "pad": "(0, 0)", 
        "stride": "(1, 1)", 
        "workspace": "256"
      }, 
      "inputs": []
    }, 
    {
      "op": "Convolution", 
      "name": "stage2_unit7_conv3", 
      "attrs": {
        "kernel": "(1, 1)", 
        "no_bias": "True", 
        "num_filter": "512", 
        "pad": "(0, 0)", 
        "stride": "(1, 1)", 
        "workspace": "256"
      }, 
      "inputs": [[263, 0, 0], [264, 0, 0]]
    }, 
    {
      "op": "null", 
      "name": "stage2_unit7_bn3_gamma", 
      "attrs": {
        "eps": "2e-05", 
        "fix_gamma": "False", 
        "momentum": "0.9"
      }, 
      "inputs": []
    }, 
    {
      "op": "null", 
      "name": "stage2_unit7_bn3_beta", 
      "attrs": {
        "eps": "2e-05", 
        "fix_gamma": "False", 
        "momentum": "0.9"
      }, 
      "inputs": []
    }, 
    {
      "op": "null", 
      "name": "stage2_unit7_bn3_moving_mean", 
      "attrs": {
        "__init__": "[\"zero\", {}]", 
        "eps": "2e-05", 
        "fix_gamma": "False", 
        "momentum": "0.9"
      }, 
      "inputs": []
    }, 
    {
      "op": "null", 
      "name": "stage2_unit7_bn3_moving_var", 
      "attrs": {
        "__init__": "[\"one\", {}]", 
        "eps": "2e-05", 
        "fix_gamma": "False", 
        "momentum": "0.9"
      }, 
      "inputs": []
    }, 
    {
      "op": "BatchNorm", 
      "name": "stage2_unit7_bn3", 
      "attrs": {
        "eps": "2e-05", 
        "fix_gamma": "False", 
        "momentum": "0.9"
      }, 
      "inputs": [[265, 0, 0], [266, 0, 0], [267, 0, 0], [268, 0, 1], [269, 0, 1]]
    }, 
    {
      "op": "elemwise_add", 
      "name": "_plus9", 
      "inputs": [[270, 0, 0], [247, 0, 0]]
    }, 
    {
      "op": "Activation", 
      "name": "stage2_unit7_relu3", 
      "attrs": {"act_type": "relu"}, 
      "inputs": [[271, 0, 0]]
    }, 
    {
      "op": "null", 
      "name": "stage2_unit8_conv1_weight", 
      "attrs": {
        "kernel": "(1, 1)", 
        "no_bias": "True", 
        "num_filter": "128", 
        "pad": "(0, 0)", 
        "stride": "(1, 1)", 
        "workspace": "256"
      }, 
      "inputs": []
    }, 
    {
      "op": "Convolution", 
      "name": "stage2_unit8_conv1", 
      "attrs": {
        "kernel": "(1, 1)", 
        "no_bias": "True", 
        "num_filter": "128", 
        "pad": "(0, 0)", 
        "stride": "(1, 1)", 
        "workspace": "256"
      }, 
      "inputs": [[272, 0, 0], [273, 0, 0]]
    }, 
    {
      "op": "null", 
      "name": "stage2_unit8_bn1_gamma", 
      "attrs": {
        "eps": "2e-05", 
        "fix_gamma": "False", 
        "momentum": "0.9"
      }, 
      "inputs": []
    }, 
    {
      "op": "null", 
      "name": "stage2_unit8_bn1_beta", 
      "attrs": {
        "eps": "2e-05", 
        "fix_gamma": "False", 
        "momentum": "0.9"
      }, 
      "inputs": []
    }, 
    {
      "op": "null", 
      "name": "stage2_unit8_bn1_moving_mean", 
      "attrs": {
        "__init__": "[\"zero\", {}]", 
        "eps": "2e-05", 
        "fix_gamma": "False", 
        "momentum": "0.9"
      }, 
      "inputs": []
    }, 
    {
      "op": "null", 
      "name": "stage2_unit8_bn1_moving_var", 
      "attrs": {
        "__init__": "[\"one\", {}]", 
        "eps": "2e-05", 
        "fix_gamma": "False", 
        "momentum": "0.9"
      }, 
      "inputs": []
    }, 
    {
      "op": "BatchNorm", 
      "name": "stage2_unit8_bn1", 
      "attrs": {
        "eps": "2e-05", 
        "fix_gamma": "False", 
        "momentum": "0.9"
      }, 
      "inputs": [[274, 0, 0], [275, 0, 0], [276, 0, 0], [277, 0, 1], [278, 0, 1]]
    }, 
    {
      "op": "Activation", 
      "name": "stage2_unit8_relu1", 
      "attrs": {"act_type": "relu"}, 
      "inputs": [[279, 0, 0]]
    }, 
    {
      "op": "null", 
      "name": "stage2_unit8_conv2_weight", 
      "attrs": {
        "kernel": "(3, 3)", 
        "no_bias": "True", 
        "num_filter": "128", 
        "pad": "(1, 1)", 
        "stride": "(1, 1)", 
        "workspace": "256"
      }, 
      "inputs": []
    }, 
    {
      "op": "Convolution", 
      "name": "stage2_unit8_conv2", 
      "attrs": {
        "kernel": "(3, 3)", 
        "no_bias": "True", 
        "num_filter": "128", 
        "pad": "(1, 1)", 
        "stride": "(1, 1)", 
        "workspace": "256"
      }, 
      "inputs": [[280, 0, 0], [281, 0, 0]]
    }, 
    {
      "op": "null", 
      "name": "stage2_unit8_bn2_gamma", 
      "attrs": {
        "eps": "2e-05", 
        "fix_gamma": "False", 
        "momentum": "0.9"
      }, 
      "inputs": []
    }, 
    {
      "op": "null", 
      "name": "stage2_unit8_bn2_beta", 
      "attrs": {
        "eps": "2e-05", 
        "fix_gamma": "False", 
        "momentum": "0.9"
      }, 
      "inputs": []
    }, 
    {
      "op": "null", 
      "name": "stage2_unit8_bn2_moving_mean", 
      "attrs": {
        "__init__": "[\"zero\", {}]", 
        "eps": "2e-05", 
        "fix_gamma": "False", 
        "momentum": "0.9"
      }, 
      "inputs": []
    }, 
    {
      "op": "null", 
      "name": "stage2_unit8_bn2_moving_var", 
      "attrs": {
        "__init__": "[\"one\", {}]", 
        "eps": "2e-05", 
        "fix_gamma": "False", 
        "momentum": "0.9"
      }, 
      "inputs": []
    }, 
    {
      "op": "BatchNorm", 
      "name": "stage2_unit8_bn2", 
      "attrs": {
        "eps": "2e-05", 
        "fix_gamma": "False", 
        "momentum": "0.9"
      }, 
      "inputs": [[282, 0, 0], [283, 0, 0], [284, 0, 0], [285, 0, 1], [286, 0, 1]]
    }, 
    {
      "op": "Activation", 
      "name": "stage2_unit8_relu2", 
      "attrs": {"act_type": "relu"}, 
      "inputs": [[287, 0, 0]]
    }, 
    {
      "op": "null", 
      "name": "stage2_unit8_conv3_weight", 
      "attrs": {
        "kernel": "(1, 1)", 
        "no_bias": "True", 
        "num_filter": "512", 
        "pad": "(0, 0)", 
        "stride": "(1, 1)", 
        "workspace": "256"
      }, 
      "inputs": []
    }, 
    {
      "op": "Convolution", 
      "name": "stage2_unit8_conv3", 
      "attrs": {
        "kernel": "(1, 1)", 
        "no_bias": "True", 
        "num_filter": "512", 
        "pad": "(0, 0)", 
        "stride": "(1, 1)", 
        "workspace": "256"
      }, 
      "inputs": [[288, 0, 0], [289, 0, 0]]
    }, 
    {
      "op": "null", 
      "name": "stage2_unit8_bn3_gamma", 
      "attrs": {
        "eps": "2e-05", 
        "fix_gamma": "False", 
        "momentum": "0.9"
      }, 
      "inputs": []
    }, 
    {
      "op": "null", 
      "name": "stage2_unit8_bn3_beta", 
      "attrs": {
        "eps": "2e-05", 
        "fix_gamma": "False", 
        "momentum": "0.9"
      }, 
      "inputs": []
    }, 
    {
      "op": "null", 
      "name": "stage2_unit8_bn3_moving_mean", 
      "attrs": {
        "__init__": "[\"zero\", {}]", 
        "eps": "2e-05", 
        "fix_gamma": "False", 
        "momentum": "0.9"
      }, 
      "inputs": []
    }, 
    {
      "op": "null", 
      "name": "stage2_unit8_bn3_moving_var", 
      "attrs": {
        "__init__": "[\"one\", {}]", 
        "eps": "2e-05", 
        "fix_gamma": "False", 
        "momentum": "0.9"
      }, 
      "inputs": []
    }, 
    {
      "op": "BatchNorm", 
      "name": "stage2_unit8_bn3", 
      "attrs": {
        "eps": "2e-05", 
        "fix_gamma": "False", 
        "momentum": "0.9"
      }, 
      "inputs": [[290, 0, 0], [291, 0, 0], [292, 0, 0], [293, 0, 1], [294, 0, 1]]
    }, 
    {
      "op": "elemwise_add", 
      "name": "_plus10", 
      "inputs": [[295, 0, 0], [272, 0, 0]]
    }, 
    {
      "op": "Activation", 
      "name": "stage2_unit8_relu3", 
      "attrs": {"act_type": "relu"}, 
      "inputs": [[296, 0, 0]]
    }, 
    {
      "op": "null", 
      "name": "stage3_unit1_conv1_weight", 
      "attrs": {
        "kernel": "(1, 1)", 
        "no_bias": "True", 
        "num_filter": "256", 
        "pad": "(0, 0)", 
        "stride": "(1, 1)", 
        "workspace": "256"
      }, 
      "inputs": []
    }, 
    {
      "op": "Convolution", 
      "name": "stage3_unit1_conv1", 
      "attrs": {
        "kernel": "(1, 1)", 
        "no_bias": "True", 
        "num_filter": "256", 
        "pad": "(0, 0)", 
        "stride": "(1, 1)", 
        "workspace": "256"
      }, 
      "inputs": [[297, 0, 0], [298, 0, 0]]
    }, 
    {
      "op": "null", 
      "name": "stage3_unit1_bn1_gamma", 
      "attrs": {
        "eps": "2e-05", 
        "fix_gamma": "False", 
        "momentum": "0.9"
      }, 
      "inputs": []
    }, 
    {
      "op": "null", 
      "name": "stage3_unit1_bn1_beta", 
      "attrs": {
        "eps": "2e-05", 
        "fix_gamma": "False", 
        "momentum": "0.9"
      }, 
      "inputs": []
    }, 
    {
      "op": "null", 
      "name": "stage3_unit1_bn1_moving_mean", 
      "attrs": {
        "__init__": "[\"zero\", {}]", 
        "eps": "2e-05", 
        "fix_gamma": "False", 
        "momentum": "0.9"
      }, 
      "inputs": []
    }, 
    {
      "op": "null", 
      "name": "stage3_unit1_bn1_moving_var", 
      "attrs": {
        "__init__": "[\"one\", {}]", 
        "eps": "2e-05", 
        "fix_gamma": "False", 
        "momentum": "0.9"
      }, 
      "inputs": []
    }, 
    {
      "op": "BatchNorm", 
      "name": "stage3_unit1_bn1", 
      "attrs": {
        "eps": "2e-05", 
        "fix_gamma": "False", 
        "momentum": "0.9"
      }, 
      "inputs": [[299, 0, 0], [300, 0, 0], [301, 0, 0], [302, 0, 1], [303, 0, 1]]
    }, 
    {
      "op": "Activation", 
      "name": "stage3_unit1_relu1", 
      "attrs": {"act_type": "relu"}, 
      "inputs": [[304, 0, 0]]
    }, 
    {
      "op": "null", 
      "name": "stage3_unit1_conv2_weight", 
      "attrs": {
        "kernel": "(3, 3)", 
        "no_bias": "True", 
        "num_filter": "256", 
        "pad": "(1, 1)", 
        "stride": "(1, 1)", 
        "workspace": "256"
      }, 
      "inputs": []
    }, 
    {
      "op": "Convolution", 
      "name": "stage3_unit1_conv2", 
      "attrs": {
        "kernel": "(3, 3)", 
        "no_bias": "True", 
        "num_filter": "256", 
        "pad": "(1, 1)", 
        "stride": "(1, 1)", 
        "workspace": "256"
      }, 
      "inputs": [[305, 0, 0], [306, 0, 0]]
    }, 
    {
      "op": "null", 
      "name": "stage3_unit1_bn2_gamma", 
      "attrs": {
        "eps": "2e-05", 
        "fix_gamma": "False", 
        "momentum": "0.9"
      }, 
      "inputs": []
    }, 
    {
      "op": "null", 
      "name": "stage3_unit1_bn2_beta", 
      "attrs": {
        "eps": "2e-05", 
        "fix_gamma": "False", 
        "momentum": "0.9"
      }, 
      "inputs": []
    }, 
    {
      "op": "null", 
      "name": "stage3_unit1_bn2_moving_mean", 
      "attrs": {
        "__init__": "[\"zero\", {}]", 
        "eps": "2e-05", 
        "fix_gamma": "False", 
        "momentum": "0.9"
      }, 
      "inputs": []
    }, 
    {
      "op": "null", 
      "name": "stage3_unit1_bn2_moving_var", 
      "attrs": {
        "__init__": "[\"one\", {}]", 
        "eps": "2e-05", 
        "fix_gamma": "False", 
        "momentum": "0.9"
      }, 
      "inputs": []
    }, 
    {
      "op": "BatchNorm", 
      "name": "stage3_unit1_bn2", 
      "attrs": {
        "eps": "2e-05", 
        "fix_gamma": "False", 
        "momentum": "0.9"
      }, 
      "inputs": [[307, 0, 0], [308, 0, 0], [309, 0, 0], [310, 0, 1], [311, 0, 1]]
    }, 
    {
      "op": "Activation", 
      "name": "stage3_unit1_relu2", 
      "attrs": {"act_type": "relu"}, 
      "inputs": [[312, 0, 0]]
    }, 
    {
      "op": "null", 
      "name": "stage3_unit1_conv3_weight", 
      "attrs": {
        "kernel": "(1, 1)", 
        "no_bias": "True", 
        "num_filter": "1024", 
        "pad": "(0, 0)", 
        "stride": "(2, 2)", 
        "workspace": "256"
      }, 
      "inputs": []
    }, 
    {
      "op": "Convolution", 
      "name": "stage3_unit1_conv3", 
      "attrs": {
        "kernel": "(1, 1)", 
        "no_bias": "True", 
        "num_filter": "1024", 
        "pad": "(0, 0)", 
        "stride": "(2, 2)", 
        "workspace": "256"
      }, 
      "inputs": [[313, 0, 0], [314, 0, 0]]
    }, 
    {
      "op": "null", 
      "name": "stage3_unit1_bn3_gamma", 
      "attrs": {
        "eps": "2e-05", 
        "fix_gamma": "False", 
        "momentum": "0.9"
      }, 
      "inputs": []
    }, 
    {
      "op": "null", 
      "name": "stage3_unit1_bn3_beta", 
      "attrs": {
        "eps": "2e-05", 
        "fix_gamma": "False", 
        "momentum": "0.9"
      }, 
      "inputs": []
    }, 
    {
      "op": "null", 
      "name": "stage3_unit1_bn3_moving_mean", 
      "attrs": {
        "__init__": "[\"zero\", {}]", 
        "eps": "2e-05", 
        "fix_gamma": "False", 
        "momentum": "0.9"
      }, 
      "inputs": []
    }, 
    {
      "op": "null", 
      "name": "stage3_unit1_bn3_moving_var", 
      "attrs": {
        "__init__": "[\"one\", {}]", 
        "eps": "2e-05", 
        "fix_gamma": "False", 
        "momentum": "0.9"
      }, 
      "inputs": []
    }, 
    {
      "op": "BatchNorm", 
      "name": "stage3_unit1_bn3", 
      "attrs": {
        "eps": "2e-05", 
        "fix_gamma": "False", 
        "momentum": "0.9"
      }, 
      "inputs": [[315, 0, 0], [316, 0, 0], [317, 0, 0], [318, 0, 1], [319, 0, 1]]
    }, 
    {
      "op": "null", 
      "name": "stage3_unit1_conv1sc_weight", 
      "attrs": {
        "kernel": "(1, 1)", 
        "no_bias": "True", 
        "num_filter": "1024", 
        "stride": "(2, 2)", 
        "workspace": "256"
      }, 
      "inputs": []
    }, 
    {
      "op": "Convolution", 
      "name": "stage3_unit1_conv1sc", 
      "attrs": {
        "kernel": "(1, 1)", 
        "no_bias": "True", 
        "num_filter": "1024", 
        "stride": "(2, 2)", 
        "workspace": "256"
      }, 
      "inputs": [[297, 0, 0], [321, 0, 0]]
    }, 
    {
      "op": "null", 
      "name": "stage3_unit1_sc_gamma", 
      "attrs": {
        "eps": "2e-05", 
        "fix_gamma": "False", 
        "momentum": "0.9"
      }, 
      "inputs": []
    }, 
    {
      "op": "null", 
      "name": "stage3_unit1_sc_beta", 
      "attrs": {
        "eps": "2e-05", 
        "fix_gamma": "False", 
        "momentum": "0.9"
      }, 
      "inputs": []
    }, 
    {
      "op": "null", 
      "name": "stage3_unit1_sc_moving_mean", 
      "attrs": {
        "__init__": "[\"zero\", {}]", 
        "eps": "2e-05", 
        "fix_gamma": "False", 
        "momentum": "0.9"
      }, 
      "inputs": []
    }, 
    {
      "op": "null", 
      "name": "stage3_unit1_sc_moving_var", 
      "attrs": {
        "__init__": "[\"one\", {}]", 
        "eps": "2e-05", 
        "fix_gamma": "False", 
        "momentum": "0.9"
      }, 
      "inputs": []
    }, 
    {
      "op": "BatchNorm", 
      "name": "stage3_unit1_sc", 
      "attrs": {
        "eps": "2e-05", 
        "fix_gamma": "False", 
        "momentum": "0.9"
      }, 
      "inputs": [[322, 0, 0], [323, 0, 0], [324, 0, 0], [325, 0, 1], [326, 0, 1]]
    }, 
    {
      "op": "elemwise_add", 
      "name": "_plus11", 
      "inputs": [[320, 0, 0], [327, 0, 0]]
    }, 
    {
      "op": "Activation", 
      "name": "stage3_unit1_relu3", 
      "attrs": {"act_type": "relu"}, 
      "inputs": [[328, 0, 0]]
    }, 
    {
      "op": "null", 
      "name": "stage3_unit2_conv1_weight", 
      "attrs": {
        "kernel": "(1, 1)", 
        "no_bias": "True", 
        "num_filter": "256", 
        "pad": "(0, 0)", 
        "stride": "(1, 1)", 
        "workspace": "256"
      }, 
      "inputs": []
    }, 
    {
      "op": "Convolution", 
      "name": "stage3_unit2_conv1", 
      "attrs": {
        "kernel": "(1, 1)", 
        "no_bias": "True", 
        "num_filter": "256", 
        "pad": "(0, 0)", 
        "stride": "(1, 1)", 
        "workspace": "256"
      }, 
      "inputs": [[329, 0, 0], [330, 0, 0]]
    }, 
    {
      "op": "null", 
      "name": "stage3_unit2_bn1_gamma", 
      "attrs": {
        "eps": "2e-05", 
        "fix_gamma": "False", 
        "momentum": "0.9"
      }, 
      "inputs": []
    }, 
    {
      "op": "null", 
      "name": "stage3_unit2_bn1_beta", 
      "attrs": {
        "eps": "2e-05", 
        "fix_gamma": "False", 
        "momentum": "0.9"
      }, 
      "inputs": []
    }, 
    {
      "op": "null", 
      "name": "stage3_unit2_bn1_moving_mean", 
      "attrs": {
        "__init__": "[\"zero\", {}]", 
        "eps": "2e-05", 
        "fix_gamma": "False", 
        "momentum": "0.9"
      }, 
      "inputs": []
    }, 
    {
      "op": "null", 
      "name": "stage3_unit2_bn1_moving_var", 
      "attrs": {
        "__init__": "[\"one\", {}]", 
        "eps": "2e-05", 
        "fix_gamma": "False", 
        "momentum": "0.9"
      }, 
      "inputs": []
    }, 
    {
      "op": "BatchNorm", 
      "name": "stage3_unit2_bn1", 
      "attrs": {
        "eps": "2e-05", 
        "fix_gamma": "False", 
        "momentum": "0.9"
      }, 
      "inputs": [[331, 0, 0], [332, 0, 0], [333, 0, 0], [334, 0, 1], [335, 0, 1]]
    }, 
    {
      "op": "Activation", 
      "name": "stage3_unit2_relu1", 
      "attrs": {"act_type": "relu"}, 
      "inputs": [[336, 0, 0]]
    }, 
    {
      "op": "null", 
      "name": "stage3_unit2_conv2_weight", 
      "attrs": {
        "kernel": "(3, 3)", 
        "no_bias": "True", 
        "num_filter": "256", 
        "pad": "(1, 1)", 
        "stride": "(1, 1)", 
        "workspace": "256"
      }, 
      "inputs": []
    }, 
    {
      "op": "Convolution", 
      "name": "stage3_unit2_conv2", 
      "attrs": {
        "kernel": "(3, 3)", 
        "no_bias": "True", 
        "num_filter": "256", 
        "pad": "(1, 1)", 
        "stride": "(1, 1)", 
        "workspace": "256"
      }, 
      "inputs": [[337, 0, 0], [338, 0, 0]]
    }, 
    {
      "op": "null", 
      "name": "stage3_unit2_bn2_gamma", 
      "attrs": {
        "eps": "2e-05", 
        "fix_gamma": "False", 
        "momentum": "0.9"
      }, 
      "inputs": []
    }, 
    {
      "op": "null", 
      "name": "stage3_unit2_bn2_beta", 
      "attrs": {
        "eps": "2e-05", 
        "fix_gamma": "False", 
        "momentum": "0.9"
      }, 
      "inputs": []
    }, 
    {
      "op": "null", 
      "name": "stage3_unit2_bn2_moving_mean", 
      "attrs": {
        "__init__": "[\"zero\", {}]", 
        "eps": "2e-05", 
        "fix_gamma": "False", 
        "momentum": "0.9"
      }, 
      "inputs": []
    }, 
    {
      "op": "null", 
      "name": "stage3_unit2_bn2_moving_var", 
      "attrs": {
        "__init__": "[\"one\", {}]", 
        "eps": "2e-05", 
        "fix_gamma": "False", 
        "momentum": "0.9"
      }, 
      "inputs": []
    }, 
    {
      "op": "BatchNorm", 
      "name": "stage3_unit2_bn2", 
      "attrs": {
        "eps": "2e-05", 
        "fix_gamma": "False", 
        "momentum": "0.9"
      }, 
      "inputs": [[339, 0, 0], [340, 0, 0], [341, 0, 0], [342, 0, 1], [343, 0, 1]]
    }, 
    {
      "op": "Activation", 
      "name": "stage3_unit2_relu2", 
      "attrs": {"act_type": "relu"}, 
      "inputs": [[344, 0, 0]]
    }, 
    {
      "op": "null", 
      "name": "stage3_unit2_conv3_weight", 
      "attrs": {
        "kernel": "(1, 1)", 
        "no_bias": "True", 
        "num_filter": "1024", 
        "pad": "(0, 0)", 
        "stride": "(1, 1)", 
        "workspace": "256"
      }, 
      "inputs": []
    }, 
    {
      "op": "Convolution", 
      "name": "stage3_unit2_conv3", 
      "attrs": {
        "kernel": "(1, 1)", 
        "no_bias": "True", 
        "num_filter": "1024", 
        "pad": "(0, 0)", 
        "stride": "(1, 1)", 
        "workspace": "256"
      }, 
      "inputs": [[345, 0, 0], [346, 0, 0]]
    }, 
    {
      "op": "null", 
      "name": "stage3_unit2_bn3_gamma", 
      "attrs": {
        "eps": "2e-05", 
        "fix_gamma": "False", 
        "momentum": "0.9"
      }, 
      "inputs": []
    }, 
    {
      "op": "null", 
      "name": "stage3_unit2_bn3_beta", 
      "attrs": {
        "eps": "2e-05", 
        "fix_gamma": "False", 
        "momentum": "0.9"
      }, 
      "inputs": []
    }, 
    {
      "op": "null", 
      "name": "stage3_unit2_bn3_moving_mean", 
      "attrs": {
        "__init__": "[\"zero\", {}]", 
        "eps": "2e-05", 
        "fix_gamma": "False", 
        "momentum": "0.9"
      }, 
      "inputs": []
    }, 
    {
      "op": "null", 
      "name": "stage3_unit2_bn3_moving_var", 
      "attrs": {
        "__init__": "[\"one\", {}]", 
        "eps": "2e-05", 
        "fix_gamma": "False", 
        "momentum": "0.9"
      }, 
      "inputs": []
    }, 
    {
      "op": "BatchNorm", 
      "name": "stage3_unit2_bn3", 
      "attrs": {
        "eps": "2e-05", 
        "fix_gamma": "False", 
        "momentum": "0.9"
      }, 
      "inputs": [[347, 0, 0], [348, 0, 0], [349, 0, 0], [350, 0, 1], [351, 0, 1]]
    }, 
    {
      "op": "elemwise_add", 
      "name": "_plus12", 
      "inputs": [[352, 0, 0], [329, 0, 0]]
    }, 
    {
      "op": "Activation", 
      "name": "stage3_unit2_relu3", 
      "attrs": {"act_type": "relu"}, 
      "inputs": [[353, 0, 0]]
    }, 
    {
      "op": "null", 
      "name": "stage3_unit3_conv1_weight", 
      "attrs": {
        "kernel": "(1, 1)", 
        "no_bias": "True", 
        "num_filter": "256", 
        "pad": "(0, 0)", 
        "stride": "(1, 1)", 
        "workspace": "256"
      }, 
      "inputs": []
    }, 
    {
      "op": "Convolution", 
      "name": "stage3_unit3_conv1", 
      "attrs": {
        "kernel": "(1, 1)", 
        "no_bias": "True", 
        "num_filter": "256", 
        "pad": "(0, 0)", 
        "stride": "(1, 1)", 
        "workspace": "256"
      }, 
      "inputs": [[354, 0, 0], [355, 0, 0]]
    }, 
    {
      "op": "null", 
      "name": "stage3_unit3_bn1_gamma", 
      "attrs": {
        "eps": "2e-05", 
        "fix_gamma": "False", 
        "momentum": "0.9"
      }, 
      "inputs": []
    }, 
    {
      "op": "null", 
      "name": "stage3_unit3_bn1_beta", 
      "attrs": {
        "eps": "2e-05", 
        "fix_gamma": "False", 
        "momentum": "0.9"
      }, 
      "inputs": []
    }, 
    {
      "op": "null", 
      "name": "stage3_unit3_bn1_moving_mean", 
      "attrs": {
        "__init__": "[\"zero\", {}]", 
        "eps": "2e-05", 
        "fix_gamma": "False", 
        "momentum": "0.9"
      }, 
      "inputs": []
    }, 
    {
      "op": "null", 
      "name": "stage3_unit3_bn1_moving_var", 
      "attrs": {
        "__init__": "[\"one\", {}]", 
        "eps": "2e-05", 
        "fix_gamma": "False", 
        "momentum": "0.9"
      }, 
      "inputs": []
    }, 
    {
      "op": "BatchNorm", 
      "name": "stage3_unit3_bn1", 
      "attrs": {
        "eps": "2e-05", 
        "fix_gamma": "False", 
        "momentum": "0.9"
      }, 
      "inputs": [[356, 0, 0], [357, 0, 0], [358, 0, 0], [359, 0, 1], [360, 0, 1]]
    }, 
    {
      "op": "Activation", 
      "name": "stage3_unit3_relu1", 
      "attrs": {"act_type": "relu"}, 
      "inputs": [[361, 0, 0]]
    }, 
    {
      "op": "null", 
      "name": "stage3_unit3_conv2_weight", 
      "attrs": {
        "kernel": "(3, 3)", 
        "no_bias": "True", 
        "num_filter": "256", 
        "pad": "(1, 1)", 
        "stride": "(1, 1)", 
        "workspace": "256"
      }, 
      "inputs": []
    }, 
    {
      "op": "Convolution", 
      "name": "stage3_unit3_conv2", 
      "attrs": {
        "kernel": "(3, 3)", 
        "no_bias": "True", 
        "num_filter": "256", 
        "pad": "(1, 1)", 
        "stride": "(1, 1)", 
        "workspace": "256"
      }, 
      "inputs": [[362, 0, 0], [363, 0, 0]]
    }, 
    {
      "op": "null", 
      "name": "stage3_unit3_bn2_gamma", 
      "attrs": {
        "eps": "2e-05", 
        "fix_gamma": "False", 
        "momentum": "0.9"
      }, 
      "inputs": []
    }, 
    {
      "op": "null", 
      "name": "stage3_unit3_bn2_beta", 
      "attrs": {
        "eps": "2e-05", 
        "fix_gamma": "False", 
        "momentum": "0.9"
      }, 
      "inputs": []
    }, 
    {
      "op": "null", 
      "name": "stage3_unit3_bn2_moving_mean", 
      "attrs": {
        "__init__": "[\"zero\", {}]", 
        "eps": "2e-05", 
        "fix_gamma": "False", 
        "momentum": "0.9"
      }, 
      "inputs": []
    }, 
    {
      "op": "null", 
      "name": "stage3_unit3_bn2_moving_var", 
      "attrs": {
        "__init__": "[\"one\", {}]", 
        "eps": "2e-05", 
        "fix_gamma": "False", 
        "momentum": "0.9"
      }, 
      "inputs": []
    }, 
    {
      "op": "BatchNorm", 
      "name": "stage3_unit3_bn2", 
      "attrs": {
        "eps": "2e-05", 
        "fix_gamma": "False", 
        "momentum": "0.9"
      }, 
      "inputs": [[364, 0, 0], [365, 0, 0], [366, 0, 0], [367, 0, 1], [368, 0, 1]]
    }, 
    {
      "op": "Activation", 
      "name": "stage3_unit3_relu2", 
      "attrs": {"act_type": "relu"}, 
      "inputs": [[369, 0, 0]]
    }, 
    {
      "op": "null", 
      "name": "stage3_unit3_conv3_weight", 
      "attrs": {
        "kernel": "(1, 1)", 
        "no_bias": "True", 
        "num_filter": "1024", 
        "pad": "(0, 0)", 
        "stride": "(1, 1)", 
        "workspace": "256"
      }, 
      "inputs": []
    }, 
    {
      "op": "Convolution", 
      "name": "stage3_unit3_conv3", 
      "attrs": {
        "kernel": "(1, 1)", 
        "no_bias": "True", 
        "num_filter": "1024", 
        "pad": "(0, 0)", 
        "stride": "(1, 1)", 
        "workspace": "256"
      }, 
      "inputs": [[370, 0, 0], [371, 0, 0]]
    }, 
    {
      "op": "null", 
      "name": "stage3_unit3_bn3_gamma", 
      "attrs": {
        "eps": "2e-05", 
        "fix_gamma": "False", 
        "momentum": "0.9"
      }, 
      "inputs": []
    }, 
    {
      "op": "null", 
      "name": "stage3_unit3_bn3_beta", 
      "attrs": {
        "eps": "2e-05", 
        "fix_gamma": "False", 
        "momentum": "0.9"
      }, 
      "inputs": []
    }, 
    {
      "op": "null", 
      "name": "stage3_unit3_bn3_moving_mean", 
      "attrs": {
        "__init__": "[\"zero\", {}]", 
        "eps": "2e-05", 
        "fix_gamma": "False", 
        "momentum": "0.9"
      }, 
      "inputs": []
    }, 
    {
      "op": "null", 
      "name": "stage3_unit3_bn3_moving_var", 
      "attrs": {
        "__init__": "[\"one\", {}]", 
        "eps": "2e-05", 
        "fix_gamma": "False", 
        "momentum": "0.9"
      }, 
      "inputs": []
    }, 
    {
      "op": "BatchNorm", 
      "name": "stage3_unit3_bn3", 
      "attrs": {
        "eps": "2e-05", 
        "fix_gamma": "False", 
        "momentum": "0.9"
      }, 
      "inputs": [[372, 0, 0], [373, 0, 0], [374, 0, 0], [375, 0, 1], [376, 0, 1]]
    }, 
    {
      "op": "elemwise_add", 
      "name": "_plus13", 
      "inputs": [[377, 0, 0], [354, 0, 0]]
    }, 
    {
      "op": "Activation", 
      "name": "stage3_unit3_relu3", 
      "attrs": {"act_type": "relu"}, 
      "inputs": [[378, 0, 0]]
    }, 
    {
      "op": "null", 
      "name": "stage3_unit4_conv1_weight", 
      "attrs": {
        "kernel": "(1, 1)", 
        "no_bias": "True", 
        "num_filter": "256", 
        "pad": "(0, 0)", 
        "stride": "(1, 1)", 
        "workspace": "256"
      }, 
      "inputs": []
    }, 
    {
      "op": "Convolution", 
      "name": "stage3_unit4_conv1", 
      "attrs": {
        "kernel": "(1, 1)", 
        "no_bias": "True", 
        "num_filter": "256", 
        "pad": "(0, 0)", 
        "stride": "(1, 1)", 
        "workspace": "256"
      }, 
      "inputs": [[379, 0, 0], [380, 0, 0]]
    }, 
    {
      "op": "null", 
      "name": "stage3_unit4_bn1_gamma", 
      "attrs": {
        "eps": "2e-05", 
        "fix_gamma": "False", 
        "momentum": "0.9"
      }, 
      "inputs": []
    }, 
    {
      "op": "null", 
      "name": "stage3_unit4_bn1_beta", 
      "attrs": {
        "eps": "2e-05", 
        "fix_gamma": "False", 
        "momentum": "0.9"
      }, 
      "inputs": []
    }, 
    {
      "op": "null", 
      "name": "stage3_unit4_bn1_moving_mean", 
      "attrs": {
        "__init__": "[\"zero\", {}]", 
        "eps": "2e-05", 
        "fix_gamma": "False", 
        "momentum": "0.9"
      }, 
      "inputs": []
    }, 
    {
      "op": "null", 
      "name": "stage3_unit4_bn1_moving_var", 
      "attrs": {
        "__init__": "[\"one\", {}]", 
        "eps": "2e-05", 
        "fix_gamma": "False", 
        "momentum": "0.9"
      }, 
      "inputs": []
    }, 
    {
      "op": "BatchNorm", 
      "name": "stage3_unit4_bn1", 
      "attrs": {
        "eps": "2e-05", 
        "fix_gamma": "False", 
        "momentum": "0.9"
      }, 
      "inputs": [[381, 0, 0], [382, 0, 0], [383, 0, 0], [384, 0, 1], [385, 0, 1]]
    }, 
    {
      "op": "Activation", 
      "name": "stage3_unit4_relu1", 
      "attrs": {"act_type": "relu"}, 
      "inputs": [[386, 0, 0]]
    }, 
    {
      "op": "null", 
      "name": "stage3_unit4_conv2_weight", 
      "attrs": {
        "kernel": "(3, 3)", 
        "no_bias": "True", 
        "num_filter": "256", 
        "pad": "(1, 1)", 
        "stride": "(1, 1)", 
        "workspace": "256"
      }, 
      "inputs": []
    }, 
    {
      "op": "Convolution", 
      "name": "stage3_unit4_conv2", 
      "attrs": {
        "kernel": "(3, 3)", 
        "no_bias": "True", 
        "num_filter": "256", 
        "pad": "(1, 1)", 
        "stride": "(1, 1)", 
        "workspace": "256"
      }, 
      "inputs": [[387, 0, 0], [388, 0, 0]]
    }, 
    {
      "op": "null", 
      "name": "stage3_unit4_bn2_gamma", 
      "attrs": {
        "eps": "2e-05", 
        "fix_gamma": "False", 
        "momentum": "0.9"
      }, 
      "inputs": []
    }, 
    {
      "op": "null", 
      "name": "stage3_unit4_bn2_beta", 
      "attrs": {
        "eps": "2e-05", 
        "fix_gamma": "False", 
        "momentum": "0.9"
      }, 
      "inputs": []
    }, 
    {
      "op": "null", 
      "name": "stage3_unit4_bn2_moving_mean", 
      "attrs": {
        "__init__": "[\"zero\", {}]", 
        "eps": "2e-05", 
        "fix_gamma": "False", 
        "momentum": "0.9"
      }, 
      "inputs": []
    }, 
    {
      "op": "null", 
      "name": "stage3_unit4_bn2_moving_var", 
      "attrs": {
        "__init__": "[\"one\", {}]", 
        "eps": "2e-05", 
        "fix_gamma": "False", 
        "momentum": "0.9"
      }, 
      "inputs": []
    }, 
    {
      "op": "BatchNorm", 
      "name": "stage3_unit4_bn2", 
      "attrs": {
        "eps": "2e-05", 
        "fix_gamma": "False", 
        "momentum": "0.9"
      }, 
      "inputs": [[389, 0, 0], [390, 0, 0], [391, 0, 0], [392, 0, 1], [393, 0, 1]]
    }, 
    {
      "op": "Activation", 
      "name": "stage3_unit4_relu2", 
      "attrs": {"act_type": "relu"}, 
      "inputs": [[394, 0, 0]]
    }, 
    {
      "op": "null", 
      "name": "stage3_unit4_conv3_weight", 
      "attrs": {
        "kernel": "(1, 1)", 
        "no_bias": "True", 
        "num_filter": "1024", 
        "pad": "(0, 0)", 
        "stride": "(1, 1)", 
        "workspace": "256"
      }, 
      "inputs": []
    }, 
    {
      "op": "Convolution", 
      "name": "stage3_unit4_conv3", 
      "attrs": {
        "kernel": "(1, 1)", 
        "no_bias": "True", 
        "num_filter": "1024", 
        "pad": "(0, 0)", 
        "stride": "(1, 1)", 
        "workspace": "256"
      }, 
      "inputs": [[395, 0, 0], [396, 0, 0]]
    }, 
    {
      "op": "null", 
      "name": "stage3_unit4_bn3_gamma", 
      "attrs": {
        "eps": "2e-05", 
        "fix_gamma": "False", 
        "momentum": "0.9"
      }, 
      "inputs": []
    }, 
    {
      "op": "null", 
      "name": "stage3_unit4_bn3_beta", 
      "attrs": {
        "eps": "2e-05", 
        "fix_gamma": "False", 
        "momentum": "0.9"
      }, 
      "inputs": []
    }, 
    {
      "op": "null", 
      "name": "stage3_unit4_bn3_moving_mean", 
      "attrs": {
        "__init__": "[\"zero\", {}]", 
        "eps": "2e-05", 
        "fix_gamma": "False", 
        "momentum": "0.9"
      }, 
      "inputs": []
    }, 
    {
      "op": "null", 
      "name": "stage3_unit4_bn3_moving_var", 
      "attrs": {
        "__init__": "[\"one\", {}]", 
        "eps": "2e-05", 
        "fix_gamma": "False", 
        "momentum": "0.9"
      }, 
      "inputs": []
    }, 
    {
      "op": "BatchNorm", 
      "name": "stage3_unit4_bn3", 
      "attrs": {
        "eps": "2e-05", 
        "fix_gamma": "False", 
        "momentum": "0.9"
      }, 
      "inputs": [[397, 0, 0], [398, 0, 0], [399, 0, 0], [400, 0, 1], [401, 0, 1]]
    }, 
    {
      "op": "elemwise_add", 
      "name": "_plus14", 
      "inputs": [[402, 0, 0], [379, 0, 0]]
    }, 
    {
      "op": "Activation", 
      "name": "stage3_unit4_relu3", 
      "attrs": {"act_type": "relu"}, 
      "inputs": [[403, 0, 0]]
    }, 
    {
      "op": "null", 
      "name": "stage3_unit5_conv1_weight", 
      "attrs": {
        "kernel": "(1, 1)", 
        "no_bias": "True", 
        "num_filter": "256", 
        "pad": "(0, 0)", 
        "stride": "(1, 1)", 
        "workspace": "256"
      }, 
      "inputs": []
    }, 
    {
      "op": "Convolution", 
      "name": "stage3_unit5_conv1", 
      "attrs": {
        "kernel": "(1, 1)", 
        "no_bias": "True", 
        "num_filter": "256", 
        "pad": "(0, 0)", 
        "stride": "(1, 1)", 
        "workspace": "256"
      }, 
      "inputs": [[404, 0, 0], [405, 0, 0]]
    }, 
    {
      "op": "null", 
      "name": "stage3_unit5_bn1_gamma", 
      "attrs": {
        "eps": "2e-05", 
        "fix_gamma": "False", 
        "momentum": "0.9"
      }, 
      "inputs": []
    }, 
    {
      "op": "null", 
      "name": "stage3_unit5_bn1_beta", 
      "attrs": {
        "eps": "2e-05", 
        "fix_gamma": "False", 
        "momentum": "0.9"
      }, 
      "inputs": []
    }, 
    {
      "op": "null", 
      "name": "stage3_unit5_bn1_moving_mean", 
      "attrs": {
        "__init__": "[\"zero\", {}]", 
        "eps": "2e-05", 
        "fix_gamma": "False", 
        "momentum": "0.9"
      }, 
      "inputs": []
    }, 
    {
      "op": "null", 
      "name": "stage3_unit5_bn1_moving_var", 
      "attrs": {
        "__init__": "[\"one\", {}]", 
        "eps": "2e-05", 
        "fix_gamma": "False", 
        "momentum": "0.9"
      }, 
      "inputs": []
    }, 
    {
      "op": "BatchNorm", 
      "name": "stage3_unit5_bn1", 
      "attrs": {
        "eps": "2e-05", 
        "fix_gamma": "False", 
        "momentum": "0.9"
      }, 
      "inputs": [[406, 0, 0], [407, 0, 0], [408, 0, 0], [409, 0, 1], [410, 0, 1]]
    }, 
    {
      "op": "Activation", 
      "name": "stage3_unit5_relu1", 
      "attrs": {"act_type": "relu"}, 
      "inputs": [[411, 0, 0]]
    }, 
    {
      "op": "null", 
      "name": "stage3_unit5_conv2_weight", 
      "attrs": {
        "kernel": "(3, 3)", 
        "no_bias": "True", 
        "num_filter": "256", 
        "pad": "(1, 1)", 
        "stride": "(1, 1)", 
        "workspace": "256"
      }, 
      "inputs": []
    }, 
    {
      "op": "Convolution", 
      "name": "stage3_unit5_conv2", 
      "attrs": {
        "kernel": "(3, 3)", 
        "no_bias": "True", 
        "num_filter": "256", 
        "pad": "(1, 1)", 
        "stride": "(1, 1)", 
        "workspace": "256"
      }, 
      "inputs": [[412, 0, 0], [413, 0, 0]]
    }, 
    {
      "op": "null", 
      "name": "stage3_unit5_bn2_gamma", 
      "attrs": {
        "eps": "2e-05", 
        "fix_gamma": "False", 
        "momentum": "0.9"
      }, 
      "inputs": []
    }, 
    {
      "op": "null", 
      "name": "stage3_unit5_bn2_beta", 
      "attrs": {
        "eps": "2e-05", 
        "fix_gamma": "False", 
        "momentum": "0.9"
      }, 
      "inputs": []
    }, 
    {
      "op": "null", 
      "name": "stage3_unit5_bn2_moving_mean", 
      "attrs": {
        "__init__": "[\"zero\", {}]", 
        "eps": "2e-05", 
        "fix_gamma": "False", 
        "momentum": "0.9"
      }, 
      "inputs": []
    }, 
    {
      "op": "null", 
      "name": "stage3_unit5_bn2_moving_var", 
      "attrs": {
        "__init__": "[\"one\", {}]", 
        "eps": "2e-05", 
        "fix_gamma": "False", 
        "momentum": "0.9"
      }, 
      "inputs": []
    }, 
    {
      "op": "BatchNorm", 
      "name": "stage3_unit5_bn2", 
      "attrs": {
        "eps": "2e-05", 
        "fix_gamma": "False", 
        "momentum": "0.9"
      }, 
      "inputs": [[414, 0, 0], [415, 0, 0], [416, 0, 0], [417, 0, 1], [418, 0, 1]]
    }, 
    {
      "op": "Activation", 
      "name": "stage3_unit5_relu2", 
      "attrs": {"act_type": "relu"}, 
      "inputs": [[419, 0, 0]]
    }, 
    {
      "op": "null", 
      "name": "stage3_unit5_conv3_weight", 
      "attrs": {
        "kernel": "(1, 1)", 
        "no_bias": "True", 
        "num_filter": "1024", 
        "pad": "(0, 0)", 
        "stride": "(1, 1)", 
        "workspace": "256"
      }, 
      "inputs": []
    }, 
    {
      "op": "Convolution", 
      "name": "stage3_unit5_conv3", 
      "attrs": {
        "kernel": "(1, 1)", 
        "no_bias": "True", 
        "num_filter": "1024", 
        "pad": "(0, 0)", 
        "stride": "(1, 1)", 
        "workspace": "256"
      }, 
      "inputs": [[420, 0, 0], [421, 0, 0]]
    }, 
    {
      "op": "null", 
      "name": "stage3_unit5_bn3_gamma", 
      "attrs": {
        "eps": "2e-05", 
        "fix_gamma": "False", 
        "momentum": "0.9"
      }, 
      "inputs": []
    }, 
    {
      "op": "null", 
      "name": "stage3_unit5_bn3_beta", 
      "attrs": {
        "eps": "2e-05", 
        "fix_gamma": "False", 
        "momentum": "0.9"
      }, 
      "inputs": []
    }, 
    {
      "op": "null", 
      "name": "stage3_unit5_bn3_moving_mean", 
      "attrs": {
        "__init__": "[\"zero\", {}]", 
        "eps": "2e-05", 
        "fix_gamma": "False", 
        "momentum": "0.9"
      }, 
      "inputs": []
    }, 
    {
      "op": "null", 
      "name": "stage3_unit5_bn3_moving_var", 
      "attrs": {
        "__init__": "[\"one\", {}]", 
        "eps": "2e-05", 
        "fix_gamma": "False", 
        "momentum": "0.9"
      }, 
      "inputs": []
    }, 
    {
      "op": "BatchNorm", 
      "name": "stage3_unit5_bn3", 
      "attrs": {
        "eps": "2e-05", 
        "fix_gamma": "False", 
        "momentum": "0.9"
      }, 
      "inputs": [[422, 0, 0], [423, 0, 0], [424, 0, 0], [425, 0, 1], [426, 0, 1]]
    }, 
    {
      "op": "elemwise_add", 
      "name": "_plus15", 
      "inputs": [[427, 0, 0], [404, 0, 0]]
    }, 
    {
      "op": "Activation", 
      "name": "stage3_unit5_relu3", 
      "attrs": {"act_type": "relu"}, 
      "inputs": [[428, 0, 0]]
    }, 
    {
      "op": "null", 
      "name": "stage3_unit6_conv1_weight", 
      "attrs": {
        "kernel": "(1, 1)", 
        "no_bias": "True", 
        "num_filter": "256", 
        "pad": "(0, 0)", 
        "stride": "(1, 1)", 
        "workspace": "256"
      }, 
      "inputs": []
    }, 
    {
      "op": "Convolution", 
      "name": "stage3_unit6_conv1", 
      "attrs": {
        "kernel": "(1, 1)", 
        "no_bias": "True", 
        "num_filter": "256", 
        "pad": "(0, 0)", 
        "stride": "(1, 1)", 
        "workspace": "256"
      }, 
      "inputs": [[429, 0, 0], [430, 0, 0]]
    }, 
    {
      "op": "null", 
      "name": "stage3_unit6_bn1_gamma", 
      "attrs": {
        "eps": "2e-05", 
        "fix_gamma": "False", 
        "momentum": "0.9"
      }, 
      "inputs": []
    }, 
    {
      "op": "null", 
      "name": "stage3_unit6_bn1_beta", 
      "attrs": {
        "eps": "2e-05", 
        "fix_gamma": "False", 
        "momentum": "0.9"
      }, 
      "inputs": []
    }, 
    {
      "op": "null", 
      "name": "stage3_unit6_bn1_moving_mean", 
      "attrs": {
        "__init__": "[\"zero\", {}]", 
        "eps": "2e-05", 
        "fix_gamma": "False", 
        "momentum": "0.9"
      }, 
      "inputs": []
    }, 
    {
      "op": "null", 
      "name": "stage3_unit6_bn1_moving_var", 
      "attrs": {
        "__init__": "[\"one\", {}]", 
        "eps": "2e-05", 
        "fix_gamma": "False", 
        "momentum": "0.9"
      }, 
      "inputs": []
    }, 
    {
      "op": "BatchNorm", 
      "name": "stage3_unit6_bn1", 
      "attrs": {
        "eps": "2e-05", 
        "fix_gamma": "False", 
        "momentum": "0.9"
      }, 
      "inputs": [[431, 0, 0], [432, 0, 0], [433, 0, 0], [434, 0, 1], [435, 0, 1]]
    }, 
    {
      "op": "Activation", 
      "name": "stage3_unit6_relu1", 
      "attrs": {"act_type": "relu"}, 
      "inputs": [[436, 0, 0]]
    }, 
    {
      "op": "null", 
      "name": "stage3_unit6_conv2_weight", 
      "attrs": {
        "kernel": "(3, 3)", 
        "no_bias": "True", 
        "num_filter": "256", 
        "pad": "(1, 1)", 
        "stride": "(1, 1)", 
        "workspace": "256"
      }, 
      "inputs": []
    }, 
    {
      "op": "Convolution", 
      "name": "stage3_unit6_conv2", 
      "attrs": {
        "kernel": "(3, 3)", 
        "no_bias": "True", 
        "num_filter": "256", 
        "pad": "(1, 1)", 
        "stride": "(1, 1)", 
        "workspace": "256"
      }, 
      "inputs": [[437, 0, 0], [438, 0, 0]]
    }, 
    {
      "op": "null", 
      "name": "stage3_unit6_bn2_gamma", 
      "attrs": {
        "eps": "2e-05", 
        "fix_gamma": "False", 
        "momentum": "0.9"
      }, 
      "inputs": []
    }, 
    {
      "op": "null", 
      "name": "stage3_unit6_bn2_beta", 
      "attrs": {
        "eps": "2e-05", 
        "fix_gamma": "False", 
        "momentum": "0.9"
      }, 
      "inputs": []
    }, 
    {
      "op": "null", 
      "name": "stage3_unit6_bn2_moving_mean", 
      "attrs": {
        "__init__": "[\"zero\", {}]", 
        "eps": "2e-05", 
        "fix_gamma": "False", 
        "momentum": "0.9"
      }, 
      "inputs": []
    }, 
    {
      "op": "null", 
      "name": "stage3_unit6_bn2_moving_var", 
      "attrs": {
        "__init__": "[\"one\", {}]", 
        "eps": "2e-05", 
        "fix_gamma": "False", 
        "momentum": "0.9"
      }, 
      "inputs": []
    }, 
    {
      "op": "BatchNorm", 
      "name": "stage3_unit6_bn2", 
      "attrs": {
        "eps": "2e-05", 
        "fix_gamma": "False", 
        "momentum": "0.9"
      }, 
      "inputs": [[439, 0, 0], [440, 0, 0], [441, 0, 0], [442, 0, 1], [443, 0, 1]]
    }, 
    {
      "op": "Activation", 
      "name": "stage3_unit6_relu2", 
      "attrs": {"act_type": "relu"}, 
      "inputs": [[444, 0, 0]]
    }, 
    {
      "op": "null", 
      "name": "stage3_unit6_conv3_weight", 
      "attrs": {
        "kernel": "(1, 1)", 
        "no_bias": "True", 
        "num_filter": "1024", 
        "pad": "(0, 0)", 
        "stride": "(1, 1)", 
        "workspace": "256"
      }, 
      "inputs": []
    }, 
    {
      "op": "Convolution", 
      "name": "stage3_unit6_conv3", 
      "attrs": {
        "kernel": "(1, 1)", 
        "no_bias": "True", 
        "num_filter": "1024", 
        "pad": "(0, 0)", 
        "stride": "(1, 1)", 
        "workspace": "256"
      }, 
      "inputs": [[445, 0, 0], [446, 0, 0]]
    }, 
    {
      "op": "null", 
      "name": "stage3_unit6_bn3_gamma", 
      "attrs": {
        "eps": "2e-05", 
        "fix_gamma": "False", 
        "momentum": "0.9"
      }, 
      "inputs": []
    }, 
    {
      "op": "null", 
      "name": "stage3_unit6_bn3_beta", 
      "attrs": {
        "eps": "2e-05", 
        "fix_gamma": "False", 
        "momentum": "0.9"
      }, 
      "inputs": []
    }, 
    {
      "op": "null", 
      "name": "stage3_unit6_bn3_moving_mean", 
      "attrs": {
        "__init__": "[\"zero\", {}]", 
        "eps": "2e-05", 
        "fix_gamma": "False", 
        "momentum": "0.9"
      }, 
      "inputs": []
    }, 
    {
      "op": "null", 
      "name": "stage3_unit6_bn3_moving_var", 
      "attrs": {
        "__init__": "[\"one\", {}]", 
        "eps": "2e-05", 
        "fix_gamma": "False", 
        "momentum": "0.9"
      }, 
      "inputs": []
    }, 
    {
      "op": "BatchNorm", 
      "name": "stage3_unit6_bn3", 
      "attrs": {
        "eps": "2e-05", 
        "fix_gamma": "False", 
        "momentum": "0.9"
      }, 
      "inputs": [[447, 0, 0], [448, 0, 0], [449, 0, 0], [450, 0, 1], [451, 0, 1]]
    }, 
    {
      "op": "elemwise_add", 
      "name": "_plus16", 
      "inputs": [[452, 0, 0], [429, 0, 0]]
    }, 
    {
      "op": "Activation", 
      "name": "stage3_unit6_relu3", 
      "attrs": {"act_type": "relu"}, 
      "inputs": [[453, 0, 0]]
    }, 
    {
      "op": "null", 
      "name": "stage3_unit7_conv1_weight", 
      "attrs": {
        "kernel": "(1, 1)", 
        "no_bias": "True", 
        "num_filter": "256", 
        "pad": "(0, 0)", 
        "stride": "(1, 1)", 
        "workspace": "256"
      }, 
      "inputs": []
    }, 
    {
      "op": "Convolution", 
      "name": "stage3_unit7_conv1", 
      "attrs": {
        "kernel": "(1, 1)", 
        "no_bias": "True", 
        "num_filter": "256", 
        "pad": "(0, 0)", 
        "stride": "(1, 1)", 
        "workspace": "256"
      }, 
      "inputs": [[454, 0, 0], [455, 0, 0]]
    }, 
    {
      "op": "null", 
      "name": "stage3_unit7_bn1_gamma", 
      "attrs": {
        "eps": "2e-05", 
        "fix_gamma": "False", 
        "momentum": "0.9"
      }, 
      "inputs": []
    }, 
    {
      "op": "null", 
      "name": "stage3_unit7_bn1_beta", 
      "attrs": {
        "eps": "2e-05", 
        "fix_gamma": "False", 
        "momentum": "0.9"
      }, 
      "inputs": []
    }, 
    {
      "op": "null", 
      "name": "stage3_unit7_bn1_moving_mean", 
      "attrs": {
        "__init__": "[\"zero\", {}]", 
        "eps": "2e-05", 
        "fix_gamma": "False", 
        "momentum": "0.9"
      }, 
      "inputs": []
    }, 
    {
      "op": "null", 
      "name": "stage3_unit7_bn1_moving_var", 
      "attrs": {
        "__init__": "[\"one\", {}]", 
        "eps": "2e-05", 
        "fix_gamma": "False", 
        "momentum": "0.9"
      }, 
      "inputs": []
    }, 
    {
      "op": "BatchNorm", 
      "name": "stage3_unit7_bn1", 
      "attrs": {
        "eps": "2e-05", 
        "fix_gamma": "False", 
        "momentum": "0.9"
      }, 
      "inputs": [[456, 0, 0], [457, 0, 0], [458, 0, 0], [459, 0, 1], [460, 0, 1]]
    }, 
    {
      "op": "Activation", 
      "name": "stage3_unit7_relu1", 
      "attrs": {"act_type": "relu"}, 
      "inputs": [[461, 0, 0]]
    }, 
    {
      "op": "null", 
      "name": "stage3_unit7_conv2_weight", 
      "attrs": {
        "kernel": "(3, 3)", 
        "no_bias": "True", 
        "num_filter": "256", 
        "pad": "(1, 1)", 
        "stride": "(1, 1)", 
        "workspace": "256"
      }, 
      "inputs": []
    }, 
    {
      "op": "Convolution", 
      "name": "stage3_unit7_conv2", 
      "attrs": {
        "kernel": "(3, 3)", 
        "no_bias": "True", 
        "num_filter": "256", 
        "pad": "(1, 1)", 
        "stride": "(1, 1)", 
        "workspace": "256"
      }, 
      "inputs": [[462, 0, 0], [463, 0, 0]]
    }, 
    {
      "op": "null", 
      "name": "stage3_unit7_bn2_gamma", 
      "attrs": {
        "eps": "2e-05", 
        "fix_gamma": "False", 
        "momentum": "0.9"
      }, 
      "inputs": []
    }, 
    {
      "op": "null", 
      "name": "stage3_unit7_bn2_beta", 
      "attrs": {
        "eps": "2e-05", 
        "fix_gamma": "False", 
        "momentum": "0.9"
      }, 
      "inputs": []
    }, 
    {
      "op": "null", 
      "name": "stage3_unit7_bn2_moving_mean", 
      "attrs": {
        "__init__": "[\"zero\", {}]", 
        "eps": "2e-05", 
        "fix_gamma": "False", 
        "momentum": "0.9"
      }, 
      "inputs": []
    }, 
    {
      "op": "null", 
      "name": "stage3_unit7_bn2_moving_var", 
      "attrs": {
        "__init__": "[\"one\", {}]", 
        "eps": "2e-05", 
        "fix_gamma": "False", 
        "momentum": "0.9"
      }, 
      "inputs": []
    }, 
    {
      "op": "BatchNorm", 
      "name": "stage3_unit7_bn2", 
      "attrs": {
        "eps": "2e-05", 
        "fix_gamma": "False", 
        "momentum": "0.9"
      }, 
      "inputs": [[464, 0, 0], [465, 0, 0], [466, 0, 0], [467, 0, 1], [468, 0, 1]]
    }, 
    {
      "op": "Activation", 
      "name": "stage3_unit7_relu2", 
      "attrs": {"act_type": "relu"}, 
      "inputs": [[469, 0, 0]]
    }, 
    {
      "op": "null", 
      "name": "stage3_unit7_conv3_weight", 
      "attrs": {
        "kernel": "(1, 1)", 
        "no_bias": "True", 
        "num_filter": "1024", 
        "pad": "(0, 0)", 
        "stride": "(1, 1)", 
        "workspace": "256"
      }, 
      "inputs": []
    }, 
    {
      "op": "Convolution", 
      "name": "stage3_unit7_conv3", 
      "attrs": {
        "kernel": "(1, 1)", 
        "no_bias": "True", 
        "num_filter": "1024", 
        "pad": "(0, 0)", 
        "stride": "(1, 1)", 
        "workspace": "256"
      }, 
      "inputs": [[470, 0, 0], [471, 0, 0]]
    }, 
    {
      "op": "null", 
      "name": "stage3_unit7_bn3_gamma", 
      "attrs": {
        "eps": "2e-05", 
        "fix_gamma": "False", 
        "momentum": "0.9"
      }, 
      "inputs": []
    }, 
    {
      "op": "null", 
      "name": "stage3_unit7_bn3_beta", 
      "attrs": {
        "eps": "2e-05", 
        "fix_gamma": "False", 
        "momentum": "0.9"
      }, 
      "inputs": []
    }, 
    {
      "op": "null", 
      "name": "stage3_unit7_bn3_moving_mean", 
      "attrs": {
        "__init__": "[\"zero\", {}]", 
        "eps": "2e-05", 
        "fix_gamma": "False", 
        "momentum": "0.9"
      }, 
      "inputs": []
    }, 
    {
      "op": "null", 
      "name": "stage3_unit7_bn3_moving_var", 
      "attrs": {
        "__init__": "[\"one\", {}]", 
        "eps": "2e-05", 
        "fix_gamma": "False", 
        "momentum": "0.9"
      }, 
      "inputs": []
    }, 
    {
      "op": "BatchNorm", 
      "name": "stage3_unit7_bn3", 
      "attrs": {
        "eps": "2e-05", 
        "fix_gamma": "False", 
        "momentum": "0.9"
      }, 
      "inputs": [[472, 0, 0], [473, 0, 0], [474, 0, 0], [475, 0, 1], [476, 0, 1]]
    }, 
    {
      "op": "elemwise_add", 
      "name": "_plus17", 
      "inputs": [[477, 0, 0], [454, 0, 0]]
    }, 
    {
      "op": "Activation", 
      "name": "stage3_unit7_relu3", 
      "attrs": {"act_type": "relu"}, 
      "inputs": [[478, 0, 0]]
    }, 
    {
      "op": "null", 
      "name": "stage3_unit8_conv1_weight", 
      "attrs": {
        "kernel": "(1, 1)", 
        "no_bias": "True", 
        "num_filter": "256", 
        "pad": "(0, 0)", 
        "stride": "(1, 1)", 
        "workspace": "256"
      }, 
      "inputs": []
    }, 
    {
      "op": "Convolution", 
      "name": "stage3_unit8_conv1", 
      "attrs": {
        "kernel": "(1, 1)", 
        "no_bias": "True", 
        "num_filter": "256", 
        "pad": "(0, 0)", 
        "stride": "(1, 1)", 
        "workspace": "256"
      }, 
      "inputs": [[479, 0, 0], [480, 0, 0]]
    }, 
    {
      "op": "null", 
      "name": "stage3_unit8_bn1_gamma", 
      "attrs": {
        "eps": "2e-05", 
        "fix_gamma": "False", 
        "momentum": "0.9"
      }, 
      "inputs": []
    }, 
    {
      "op": "null", 
      "name": "stage3_unit8_bn1_beta", 
      "attrs": {
        "eps": "2e-05", 
        "fix_gamma": "False", 
        "momentum": "0.9"
      }, 
      "inputs": []
    }, 
    {
      "op": "null", 
      "name": "stage3_unit8_bn1_moving_mean", 
      "attrs": {
        "__init__": "[\"zero\", {}]", 
        "eps": "2e-05", 
        "fix_gamma": "False", 
        "momentum": "0.9"
      }, 
      "inputs": []
    }, 
    {
      "op": "null", 
      "name": "stage3_unit8_bn1_moving_var", 
      "attrs": {
        "__init__": "[\"one\", {}]", 
        "eps": "2e-05", 
        "fix_gamma": "False", 
        "momentum": "0.9"
      }, 
      "inputs": []
    }, 
    {
      "op": "BatchNorm", 
      "name": "stage3_unit8_bn1", 
      "attrs": {
        "eps": "2e-05", 
        "fix_gamma": "False", 
        "momentum": "0.9"
      }, 
      "inputs": [[481, 0, 0], [482, 0, 0], [483, 0, 0], [484, 0, 1], [485, 0, 1]]
    }, 
    {
      "op": "Activation", 
      "name": "stage3_unit8_relu1", 
      "attrs": {"act_type": "relu"}, 
      "inputs": [[486, 0, 0]]
    }, 
    {
      "op": "null", 
      "name": "stage3_unit8_conv2_weight", 
      "attrs": {
        "kernel": "(3, 3)", 
        "no_bias": "True", 
        "num_filter": "256", 
        "pad": "(1, 1)", 
        "stride": "(1, 1)", 
        "workspace": "256"
      }, 
      "inputs": []
    }, 
    {
      "op": "Convolution", 
      "name": "stage3_unit8_conv2", 
      "attrs": {
        "kernel": "(3, 3)", 
        "no_bias": "True", 
        "num_filter": "256", 
        "pad": "(1, 1)", 
        "stride": "(1, 1)", 
        "workspace": "256"
      }, 
      "inputs": [[487, 0, 0], [488, 0, 0]]
    }, 
    {
      "op": "null", 
      "name": "stage3_unit8_bn2_gamma", 
      "attrs": {
        "eps": "2e-05", 
        "fix_gamma": "False", 
        "momentum": "0.9"
      }, 
      "inputs": []
    }, 
    {
      "op": "null", 
      "name": "stage3_unit8_bn2_beta", 
      "attrs": {
        "eps": "2e-05", 
        "fix_gamma": "False", 
        "momentum": "0.9"
      }, 
      "inputs": []
    }, 
    {
      "op": "null", 
      "name": "stage3_unit8_bn2_moving_mean", 
      "attrs": {
        "__init__": "[\"zero\", {}]", 
        "eps": "2e-05", 
        "fix_gamma": "False", 
        "momentum": "0.9"
      }, 
      "inputs": []
    }, 
    {
      "op": "null", 
      "name": "stage3_unit8_bn2_moving_var", 
      "attrs": {
        "__init__": "[\"one\", {}]", 
        "eps": "2e-05", 
        "fix_gamma": "False", 
        "momentum": "0.9"
      }, 
      "inputs": []
    }, 
    {
      "op": "BatchNorm", 
      "name": "stage3_unit8_bn2", 
      "attrs": {
        "eps": "2e-05", 
        "fix_gamma": "False", 
        "momentum": "0.9"
      }, 
      "inputs": [[489, 0, 0], [490, 0, 0], [491, 0, 0], [492, 0, 1], [493, 0, 1]]
    }, 
    {
      "op": "Activation", 
      "name": "stage3_unit8_relu2", 
      "attrs": {"act_type": "relu"}, 
      "inputs": [[494, 0, 0]]
    }, 
    {
      "op": "null", 
      "name": "stage3_unit8_conv3_weight", 
      "attrs": {
        "kernel": "(1, 1)", 
        "no_bias": "True", 
        "num_filter": "1024", 
        "pad": "(0, 0)", 
        "stride": "(1, 1)", 
        "workspace": "256"
      }, 
      "inputs": []
    }, 
    {
      "op": "Convolution", 
      "name": "stage3_unit8_conv3", 
      "attrs": {
        "kernel": "(1, 1)", 
        "no_bias": "True", 
        "num_filter": "1024", 
        "pad": "(0, 0)", 
        "stride": "(1, 1)", 
        "workspace": "256"
      }, 
      "inputs": [[495, 0, 0], [496, 0, 0]]
    }, 
    {
      "op": "null", 
      "name": "stage3_unit8_bn3_gamma", 
      "attrs": {
        "eps": "2e-05", 
        "fix_gamma": "False", 
        "momentum": "0.9"
      }, 
      "inputs": []
    }, 
    {
      "op": "null", 
      "name": "stage3_unit8_bn3_beta", 
      "attrs": {
        "eps": "2e-05", 
        "fix_gamma": "False", 
        "momentum": "0.9"
      }, 
      "inputs": []
    }, 
    {
      "op": "null", 
      "name": "stage3_unit8_bn3_moving_mean", 
      "attrs": {
        "__init__": "[\"zero\", {}]", 
        "eps": "2e-05", 
        "fix_gamma": "False", 
        "momentum": "0.9"
      }, 
      "inputs": []
    }, 
    {
      "op": "null", 
      "name": "stage3_unit8_bn3_moving_var", 
      "attrs": {
        "__init__": "[\"one\", {}]", 
        "eps": "2e-05", 
        "fix_gamma": "False", 
        "momentum": "0.9"
      }, 
      "inputs": []
    }, 
    {
      "op": "BatchNorm", 
      "name": "stage3_unit8_bn3", 
      "attrs": {
        "eps": "2e-05", 
        "fix_gamma": "False", 
        "momentum": "0.9"
      }, 
      "inputs": [[497, 0, 0], [498, 0, 0], [499, 0, 0], [500, 0, 1], [501, 0, 1]]
    }, 
    {
      "op": "elemwise_add", 
      "name": "_plus18", 
      "inputs": [[502, 0, 0], [479, 0, 0]]
    }, 
    {
      "op": "Activation", 
      "name": "stage3_unit8_relu3", 
      "attrs": {"act_type": "relu"}, 
      "inputs": [[503, 0, 0]]
    }, 
    {
      "op": "null", 
      "name": "stage3_unit9_conv1_weight", 
      "attrs": {
        "kernel": "(1, 1)", 
        "no_bias": "True", 
        "num_filter": "256", 
        "pad": "(0, 0)", 
        "stride": "(1, 1)", 
        "workspace": "256"
      }, 
      "inputs": []
    }, 
    {
      "op": "Convolution", 
      "name": "stage3_unit9_conv1", 
      "attrs": {
        "kernel": "(1, 1)", 
        "no_bias": "True", 
        "num_filter": "256", 
        "pad": "(0, 0)", 
        "stride": "(1, 1)", 
        "workspace": "256"
      }, 
      "inputs": [[504, 0, 0], [505, 0, 0]]
    }, 
    {
      "op": "null", 
      "name": "stage3_unit9_bn1_gamma", 
      "attrs": {
        "eps": "2e-05", 
        "fix_gamma": "False", 
        "momentum": "0.9"
      }, 
      "inputs": []
    }, 
    {
      "op": "null", 
      "name": "stage3_unit9_bn1_beta", 
      "attrs": {
        "eps": "2e-05", 
        "fix_gamma": "False", 
        "momentum": "0.9"
      }, 
      "inputs": []
    }, 
    {
      "op": "null", 
      "name": "stage3_unit9_bn1_moving_mean", 
      "attrs": {
        "__init__": "[\"zero\", {}]", 
        "eps": "2e-05", 
        "fix_gamma": "False", 
        "momentum": "0.9"
      }, 
      "inputs": []
    }, 
    {
      "op": "null", 
      "name": "stage3_unit9_bn1_moving_var", 
      "attrs": {
        "__init__": "[\"one\", {}]", 
        "eps": "2e-05", 
        "fix_gamma": "False", 
        "momentum": "0.9"
      }, 
      "inputs": []
    }, 
    {
      "op": "BatchNorm", 
      "name": "stage3_unit9_bn1", 
      "attrs": {
        "eps": "2e-05", 
        "fix_gamma": "False", 
        "momentum": "0.9"
      }, 
      "inputs": [[506, 0, 0], [507, 0, 0], [508, 0, 0], [509, 0, 1], [510, 0, 1]]
    }, 
    {
      "op": "Activation", 
      "name": "stage3_unit9_relu1", 
      "attrs": {"act_type": "relu"}, 
      "inputs": [[511, 0, 0]]
    }, 
    {
      "op": "null", 
      "name": "stage3_unit9_conv2_weight", 
      "attrs": {
        "kernel": "(3, 3)", 
        "no_bias": "True", 
        "num_filter": "256", 
        "pad": "(1, 1)", 
        "stride": "(1, 1)", 
        "workspace": "256"
      }, 
      "inputs": []
    }, 
    {
      "op": "Convolution", 
      "name": "stage3_unit9_conv2", 
      "attrs": {
        "kernel": "(3, 3)", 
        "no_bias": "True", 
        "num_filter": "256", 
        "pad": "(1, 1)", 
        "stride": "(1, 1)", 
        "workspace": "256"
      }, 
      "inputs": [[512, 0, 0], [513, 0, 0]]
    }, 
    {
      "op": "null", 
      "name": "stage3_unit9_bn2_gamma", 
      "attrs": {
        "eps": "2e-05", 
        "fix_gamma": "False", 
        "momentum": "0.9"
      }, 
      "inputs": []
    }, 
    {
      "op": "null", 
      "name": "stage3_unit9_bn2_beta", 
      "attrs": {
        "eps": "2e-05", 
        "fix_gamma": "False", 
        "momentum": "0.9"
      }, 
      "inputs": []
    }, 
    {
      "op": "null", 
      "name": "stage3_unit9_bn2_moving_mean", 
      "attrs": {
        "__init__": "[\"zero\", {}]", 
        "eps": "2e-05", 
        "fix_gamma": "False", 
        "momentum": "0.9"
      }, 
      "inputs": []
    }, 
    {
      "op": "null", 
      "name": "stage3_unit9_bn2_moving_var", 
      "attrs": {
        "__init__": "[\"one\", {}]", 
        "eps": "2e-05", 
        "fix_gamma": "False", 
        "momentum": "0.9"
      }, 
      "inputs": []
    }, 
    {
      "op": "BatchNorm", 
      "name": "stage3_unit9_bn2", 
      "attrs": {
        "eps": "2e-05", 
        "fix_gamma": "False", 
        "momentum": "0.9"
      }, 
      "inputs": [[514, 0, 0], [515, 0, 0], [516, 0, 0], [517, 0, 1], [518, 0, 1]]
    }, 
    {
      "op": "Activation", 
      "name": "stage3_unit9_relu2", 
      "attrs": {"act_type": "relu"}, 
      "inputs": [[519, 0, 0]]
    }, 
    {
      "op": "null", 
      "name": "stage3_unit9_conv3_weight", 
      "attrs": {
        "kernel": "(1, 1)", 
        "no_bias": "True", 
        "num_filter": "1024", 
        "pad": "(0, 0)", 
        "stride": "(1, 1)", 
        "workspace": "256"
      }, 
      "inputs": []
    }, 
    {
      "op": "Convolution", 
      "name": "stage3_unit9_conv3", 
      "attrs": {
        "kernel": "(1, 1)", 
        "no_bias": "True", 
        "num_filter": "1024", 
        "pad": "(0, 0)", 
        "stride": "(1, 1)", 
        "workspace": "256"
      }, 
      "inputs": [[520, 0, 0], [521, 0, 0]]
    }, 
    {
      "op": "null", 
      "name": "stage3_unit9_bn3_gamma", 
      "attrs": {
        "eps": "2e-05", 
        "fix_gamma": "False", 
        "momentum": "0.9"
      }, 
      "inputs": []
    }, 
    {
      "op": "null", 
      "name": "stage3_unit9_bn3_beta", 
      "attrs": {
        "eps": "2e-05", 
        "fix_gamma": "False", 
        "momentum": "0.9"
      }, 
      "inputs": []
    }, 
    {
      "op": "null", 
      "name": "stage3_unit9_bn3_moving_mean", 
      "attrs": {
        "__init__": "[\"zero\", {}]", 
        "eps": "2e-05", 
        "fix_gamma": "False", 
        "momentum": "0.9"
      }, 
      "inputs": []
    }, 
    {
      "op": "null", 
      "name": "stage3_unit9_bn3_moving_var", 
      "attrs": {
        "__init__": "[\"one\", {}]", 
        "eps": "2e-05", 
        "fix_gamma": "False", 
        "momentum": "0.9"
      }, 
      "inputs": []
    }, 
    {
      "op": "BatchNorm", 
      "name": "stage3_unit9_bn3", 
      "attrs": {
        "eps": "2e-05", 
        "fix_gamma": "False", 
        "momentum": "0.9"
      }, 
      "inputs": [[522, 0, 0], [523, 0, 0], [524, 0, 0], [525, 0, 1], [526, 0, 1]]
    }, 
    {
      "op": "elemwise_add", 
      "name": "_plus19", 
      "inputs": [[527, 0, 0], [504, 0, 0]]
    }, 
    {
      "op": "Activation", 
      "name": "stage3_unit9_relu3", 
      "attrs": {"act_type": "relu"}, 
      "inputs": [[528, 0, 0]]
    }, 
    {
      "op": "null", 
      "name": "stage3_unit10_conv1_weight", 
      "attrs": {
        "kernel": "(1, 1)", 
        "no_bias": "True", 
        "num_filter": "256", 
        "pad": "(0, 0)", 
        "stride": "(1, 1)", 
        "workspace": "256"
      }, 
      "inputs": []
    }, 
    {
      "op": "Convolution", 
      "name": "stage3_unit10_conv1", 
      "attrs": {
        "kernel": "(1, 1)", 
        "no_bias": "True", 
        "num_filter": "256", 
        "pad": "(0, 0)", 
        "stride": "(1, 1)", 
        "workspace": "256"
      }, 
      "inputs": [[529, 0, 0], [530, 0, 0]]
    }, 
    {
      "op": "null", 
      "name": "stage3_unit10_bn1_gamma", 
      "attrs": {
        "eps": "2e-05", 
        "fix_gamma": "False", 
        "momentum": "0.9"
      }, 
      "inputs": []
    }, 
    {
      "op": "null", 
      "name": "stage3_unit10_bn1_beta", 
      "attrs": {
        "eps": "2e-05", 
        "fix_gamma": "False", 
        "momentum": "0.9"
      }, 
      "inputs": []
    }, 
    {
      "op": "null", 
      "name": "stage3_unit10_bn1_moving_mean", 
      "attrs": {
        "__init__": "[\"zero\", {}]", 
        "eps": "2e-05", 
        "fix_gamma": "False", 
        "momentum": "0.9"
      }, 
      "inputs": []
    }, 
    {
      "op": "null", 
      "name": "stage3_unit10_bn1_moving_var", 
      "attrs": {
        "__init__": "[\"one\", {}]", 
        "eps": "2e-05", 
        "fix_gamma": "False", 
        "momentum": "0.9"
      }, 
      "inputs": []
    }, 
    {
      "op": "BatchNorm", 
      "name": "stage3_unit10_bn1", 
      "attrs": {
        "eps": "2e-05", 
        "fix_gamma": "False", 
        "momentum": "0.9"
      }, 
      "inputs": [[531, 0, 0], [532, 0, 0], [533, 0, 0], [534, 0, 1], [535, 0, 1]]
    }, 
    {
      "op": "Activation", 
      "name": "stage3_unit10_relu1", 
      "attrs": {"act_type": "relu"}, 
      "inputs": [[536, 0, 0]]
    }, 
    {
      "op": "null", 
      "name": "stage3_unit10_conv2_weight", 
      "attrs": {
        "kernel": "(3, 3)", 
        "no_bias": "True", 
        "num_filter": "256", 
        "pad": "(1, 1)", 
        "stride": "(1, 1)", 
        "workspace": "256"
      }, 
      "inputs": []
    }, 
    {
      "op": "Convolution", 
      "name": "stage3_unit10_conv2", 
      "attrs": {
        "kernel": "(3, 3)", 
        "no_bias": "True", 
        "num_filter": "256", 
        "pad": "(1, 1)", 
        "stride": "(1, 1)", 
        "workspace": "256"
      }, 
      "inputs": [[537, 0, 0], [538, 0, 0]]
    }, 
    {
      "op": "null", 
      "name": "stage3_unit10_bn2_gamma", 
      "attrs": {
        "eps": "2e-05", 
        "fix_gamma": "False", 
        "momentum": "0.9"
      }, 
      "inputs": []
    }, 
    {
      "op": "null", 
      "name": "stage3_unit10_bn2_beta", 
      "attrs": {
        "eps": "2e-05", 
        "fix_gamma": "False", 
        "momentum": "0.9"
      }, 
      "inputs": []
    }, 
    {
      "op": "null", 
      "name": "stage3_unit10_bn2_moving_mean", 
      "attrs": {
        "__init__": "[\"zero\", {}]", 
        "eps": "2e-05", 
        "fix_gamma": "False", 
        "momentum": "0.9"
      }, 
      "inputs": []
    }, 
    {
      "op": "null", 
      "name": "stage3_unit10_bn2_moving_var", 
      "attrs": {
        "__init__": "[\"one\", {}]", 
        "eps": "2e-05", 
        "fix_gamma": "False", 
        "momentum": "0.9"
      }, 
      "inputs": []
    }, 
    {
      "op": "BatchNorm", 
      "name": "stage3_unit10_bn2", 
      "attrs": {
        "eps": "2e-05", 
        "fix_gamma": "False", 
        "momentum": "0.9"
      }, 
      "inputs": [[539, 0, 0], [540, 0, 0], [541, 0, 0], [542, 0, 1], [543, 0, 1]]
    }, 
    {
      "op": "Activation", 
      "name": "stage3_unit10_relu2", 
      "attrs": {"act_type": "relu"}, 
      "inputs": [[544, 0, 0]]
    }, 
    {
      "op": "null", 
      "name": "stage3_unit10_conv3_weight", 
      "attrs": {
        "kernel": "(1, 1)", 
        "no_bias": "True", 
        "num_filter": "1024", 
        "pad": "(0, 0)", 
        "stride": "(1, 1)", 
        "workspace": "256"
      }, 
      "inputs": []
    }, 
    {
      "op": "Convolution", 
      "name": "stage3_unit10_conv3", 
      "attrs": {
        "kernel": "(1, 1)", 
        "no_bias": "True", 
        "num_filter": "1024", 
        "pad": "(0, 0)", 
        "stride": "(1, 1)", 
        "workspace": "256"
      }, 
      "inputs": [[545, 0, 0], [546, 0, 0]]
    }, 
    {
      "op": "null", 
      "name": "stage3_unit10_bn3_gamma", 
      "attrs": {
        "eps": "2e-05", 
        "fix_gamma": "False", 
        "momentum": "0.9"
      }, 
      "inputs": []
    }, 
    {
      "op": "null", 
      "name": "stage3_unit10_bn3_beta", 
      "attrs": {
        "eps": "2e-05", 
        "fix_gamma": "False", 
        "momentum": "0.9"
      }, 
      "inputs": []
    }, 
    {
      "op": "null", 
      "name": "stage3_unit10_bn3_moving_mean", 
      "attrs": {
        "__init__": "[\"zero\", {}]", 
        "eps": "2e-05", 
        "fix_gamma": "False", 
        "momentum": "0.9"
      }, 
      "inputs": []
    }, 
    {
      "op": "null", 
      "name": "stage3_unit10_bn3_moving_var", 
      "attrs": {
        "__init__": "[\"one\", {}]", 
        "eps": "2e-05", 
        "fix_gamma": "False", 
        "momentum": "0.9"
      }, 
      "inputs": []
    }, 
    {
      "op": "BatchNorm", 
      "name": "stage3_unit10_bn3", 
      "attrs": {
        "eps": "2e-05", 
        "fix_gamma": "False", 
        "momentum": "0.9"
      }, 
      "inputs": [[547, 0, 0], [548, 0, 0], [549, 0, 0], [550, 0, 1], [551, 0, 1]]
    }, 
    {
      "op": "elemwise_add", 
      "name": "_plus20", 
      "inputs": [[552, 0, 0], [529, 0, 0]]
    }, 
    {
      "op": "Activation", 
      "name": "stage3_unit10_relu3", 
      "attrs": {"act_type": "relu"}, 
      "inputs": [[553, 0, 0]]
    }, 
    {
      "op": "null", 
      "name": "stage3_unit11_conv1_weight", 
      "attrs": {
        "kernel": "(1, 1)", 
        "no_bias": "True", 
        "num_filter": "256", 
        "pad": "(0, 0)", 
        "stride": "(1, 1)", 
        "workspace": "256"
      }, 
      "inputs": []
    }, 
    {
      "op": "Convolution", 
      "name": "stage3_unit11_conv1", 
      "attrs": {
        "kernel": "(1, 1)", 
        "no_bias": "True", 
        "num_filter": "256", 
        "pad": "(0, 0)", 
        "stride": "(1, 1)", 
        "workspace": "256"
      }, 
      "inputs": [[554, 0, 0], [555, 0, 0]]
    }, 
    {
      "op": "null", 
      "name": "stage3_unit11_bn1_gamma", 
      "attrs": {
        "eps": "2e-05", 
        "fix_gamma": "False", 
        "momentum": "0.9"
      }, 
      "inputs": []
    }, 
    {
      "op": "null", 
      "name": "stage3_unit11_bn1_beta", 
      "attrs": {
        "eps": "2e-05", 
        "fix_gamma": "False", 
        "momentum": "0.9"
      }, 
      "inputs": []
    }, 
    {
      "op": "null", 
      "name": "stage3_unit11_bn1_moving_mean", 
      "attrs": {
        "__init__": "[\"zero\", {}]", 
        "eps": "2e-05", 
        "fix_gamma": "False", 
        "momentum": "0.9"
      }, 
      "inputs": []
    }, 
    {
      "op": "null", 
      "name": "stage3_unit11_bn1_moving_var", 
      "attrs": {
        "__init__": "[\"one\", {}]", 
        "eps": "2e-05", 
        "fix_gamma": "False", 
        "momentum": "0.9"
      }, 
      "inputs": []
    }, 
    {
      "op": "BatchNorm", 
      "name": "stage3_unit11_bn1", 
      "attrs": {
        "eps": "2e-05", 
        "fix_gamma": "False", 
        "momentum": "0.9"
      }, 
      "inputs": [[556, 0, 0], [557, 0, 0], [558, 0, 0], [559, 0, 1], [560, 0, 1]]
    }, 
    {
      "op": "Activation", 
      "name": "stage3_unit11_relu1", 
      "attrs": {"act_type": "relu"}, 
      "inputs": [[561, 0, 0]]
    }, 
    {
      "op": "null", 
      "name": "stage3_unit11_conv2_weight", 
      "attrs": {
        "kernel": "(3, 3)", 
        "no_bias": "True", 
        "num_filter": "256", 
        "pad": "(1, 1)", 
        "stride": "(1, 1)", 
        "workspace": "256"
      }, 
      "inputs": []
    }, 
    {
      "op": "Convolution", 
      "name": "stage3_unit11_conv2", 
      "attrs": {
        "kernel": "(3, 3)", 
        "no_bias": "True", 
        "num_filter": "256", 
        "pad": "(1, 1)", 
        "stride": "(1, 1)", 
        "workspace": "256"
      }, 
      "inputs": [[562, 0, 0], [563, 0, 0]]
    }, 
    {
      "op": "null", 
      "name": "stage3_unit11_bn2_gamma", 
      "attrs": {
        "eps": "2e-05", 
        "fix_gamma": "False", 
        "momentum": "0.9"
      }, 
      "inputs": []
    }, 
    {
      "op": "null", 
      "name": "stage3_unit11_bn2_beta", 
      "attrs": {
        "eps": "2e-05", 
        "fix_gamma": "False", 
        "momentum": "0.9"
      }, 
      "inputs": []
    }, 
    {
      "op": "null", 
      "name": "stage3_unit11_bn2_moving_mean", 
      "attrs": {
        "__init__": "[\"zero\", {}]", 
        "eps": "2e-05", 
        "fix_gamma": "False", 
        "momentum": "0.9"
      }, 
      "inputs": []
    }, 
    {
      "op": "null", 
      "name": "stage3_unit11_bn2_moving_var", 
      "attrs": {
        "__init__": "[\"one\", {}]", 
        "eps": "2e-05", 
        "fix_gamma": "False", 
        "momentum": "0.9"
      }, 
      "inputs": []
    }, 
    {
      "op": "BatchNorm", 
      "name": "stage3_unit11_bn2", 
      "attrs": {
        "eps": "2e-05", 
        "fix_gamma": "False", 
        "momentum": "0.9"
      }, 
      "inputs": [[564, 0, 0], [565, 0, 0], [566, 0, 0], [567, 0, 1], [568, 0, 1]]
    }, 
    {
      "op": "Activation", 
      "name": "stage3_unit11_relu2", 
      "attrs": {"act_type": "relu"}, 
      "inputs": [[569, 0, 0]]
    }, 
    {
      "op": "null", 
      "name": "stage3_unit11_conv3_weight", 
      "attrs": {
        "kernel": "(1, 1)", 
        "no_bias": "True", 
        "num_filter": "1024", 
        "pad": "(0, 0)", 
        "stride": "(1, 1)", 
        "workspace": "256"
      }, 
      "inputs": []
    }, 
    {
      "op": "Convolution", 
      "name": "stage3_unit11_conv3", 
      "attrs": {
        "kernel": "(1, 1)", 
        "no_bias": "True", 
        "num_filter": "1024", 
        "pad": "(0, 0)", 
        "stride": "(1, 1)", 
        "workspace": "256"
      }, 
      "inputs": [[570, 0, 0], [571, 0, 0]]
    }, 
    {
      "op": "null", 
      "name": "stage3_unit11_bn3_gamma", 
      "attrs": {
        "eps": "2e-05", 
        "fix_gamma": "False", 
        "momentum": "0.9"
      }, 
      "inputs": []
    }, 
    {
      "op": "null", 
      "name": "stage3_unit11_bn3_beta", 
      "attrs": {
        "eps": "2e-05", 
        "fix_gamma": "False", 
        "momentum": "0.9"
      }, 
      "inputs": []
    }, 
    {
      "op": "null", 
      "name": "stage3_unit11_bn3_moving_mean", 
      "attrs": {
        "__init__": "[\"zero\", {}]", 
        "eps": "2e-05", 
        "fix_gamma": "False", 
        "momentum": "0.9"
      }, 
      "inputs": []
    }, 
    {
      "op": "null", 
      "name": "stage3_unit11_bn3_moving_var", 
      "attrs": {
        "__init__": "[\"one\", {}]", 
        "eps": "2e-05", 
        "fix_gamma": "False", 
        "momentum": "0.9"
      }, 
      "inputs": []
    }, 
    {
      "op": "BatchNorm", 
      "name": "stage3_unit11_bn3", 
      "attrs": {
        "eps": "2e-05", 
        "fix_gamma": "False", 
        "momentum": "0.9"
      }, 
      "inputs": [[572, 0, 0], [573, 0, 0], [574, 0, 0], [575, 0, 1], [576, 0, 1]]
    }, 
    {
      "op": "elemwise_add", 
      "name": "_plus21", 
      "inputs": [[577, 0, 0], [554, 0, 0]]
    }, 
    {
      "op": "Activation", 
      "name": "stage3_unit11_relu3", 
      "attrs": {"act_type": "relu"}, 
      "inputs": [[578, 0, 0]]
    }, 
    {
      "op": "null", 
      "name": "stage3_unit12_conv1_weight", 
      "attrs": {
        "kernel": "(1, 1)", 
        "no_bias": "True", 
        "num_filter": "256", 
        "pad": "(0, 0)", 
        "stride": "(1, 1)", 
        "workspace": "256"
      }, 
      "inputs": []
    }, 
    {
      "op": "Convolution", 
      "name": "stage3_unit12_conv1", 
      "attrs": {
        "kernel": "(1, 1)", 
        "no_bias": "True", 
        "num_filter": "256", 
        "pad": "(0, 0)", 
        "stride": "(1, 1)", 
        "workspace": "256"
      }, 
      "inputs": [[579, 0, 0], [580, 0, 0]]
    }, 
    {
      "op": "null", 
      "name": "stage3_unit12_bn1_gamma", 
      "attrs": {
        "eps": "2e-05", 
        "fix_gamma": "False", 
        "momentum": "0.9"
      }, 
      "inputs": []
    }, 
    {
      "op": "null", 
      "name": "stage3_unit12_bn1_beta", 
      "attrs": {
        "eps": "2e-05", 
        "fix_gamma": "False", 
        "momentum": "0.9"
      }, 
      "inputs": []
    }, 
    {
      "op": "null", 
      "name": "stage3_unit12_bn1_moving_mean", 
      "attrs": {
        "__init__": "[\"zero\", {}]", 
        "eps": "2e-05", 
        "fix_gamma": "False", 
        "momentum": "0.9"
      }, 
      "inputs": []
    }, 
    {
      "op": "null", 
      "name": "stage3_unit12_bn1_moving_var", 
      "attrs": {
        "__init__": "[\"one\", {}]", 
        "eps": "2e-05", 
        "fix_gamma": "False", 
        "momentum": "0.9"
      }, 
      "inputs": []
    }, 
    {
      "op": "BatchNorm", 
      "name": "stage3_unit12_bn1", 
      "attrs": {
        "eps": "2e-05", 
        "fix_gamma": "False", 
        "momentum": "0.9"
      }, 
      "inputs": [[581, 0, 0], [582, 0, 0], [583, 0, 0], [584, 0, 1], [585, 0, 1]]
    }, 
    {
      "op": "Activation", 
      "name": "stage3_unit12_relu1", 
      "attrs": {"act_type": "relu"}, 
      "inputs": [[586, 0, 0]]
    }, 
    {
      "op": "null", 
      "name": "stage3_unit12_conv2_weight", 
      "attrs": {
        "kernel": "(3, 3)", 
        "no_bias": "True", 
        "num_filter": "256", 
        "pad": "(1, 1)", 
        "stride": "(1, 1)", 
        "workspace": "256"
      }, 
      "inputs": []
    }, 
    {
      "op": "Convolution", 
      "name": "stage3_unit12_conv2", 
      "attrs": {
        "kernel": "(3, 3)", 
        "no_bias": "True", 
        "num_filter": "256", 
        "pad": "(1, 1)", 
        "stride": "(1, 1)", 
        "workspace": "256"
      }, 
      "inputs": [[587, 0, 0], [588, 0, 0]]
    }, 
    {
      "op": "null", 
      "name": "stage3_unit12_bn2_gamma", 
      "attrs": {
        "eps": "2e-05", 
        "fix_gamma": "False", 
        "momentum": "0.9"
      }, 
      "inputs": []
    }, 
    {
      "op": "null", 
      "name": "stage3_unit12_bn2_beta", 
      "attrs": {
        "eps": "2e-05", 
        "fix_gamma": "False", 
        "momentum": "0.9"
      }, 
      "inputs": []
    }, 
    {
      "op": "null", 
      "name": "stage3_unit12_bn2_moving_mean", 
      "attrs": {
        "__init__": "[\"zero\", {}]", 
        "eps": "2e-05", 
        "fix_gamma": "False", 
        "momentum": "0.9"
      }, 
      "inputs": []
    }, 
    {
      "op": "null", 
      "name": "stage3_unit12_bn2_moving_var", 
      "attrs": {
        "__init__": "[\"one\", {}]", 
        "eps": "2e-05", 
        "fix_gamma": "False", 
        "momentum": "0.9"
      }, 
      "inputs": []
    }, 
    {
      "op": "BatchNorm", 
      "name": "stage3_unit12_bn2", 
      "attrs": {
        "eps": "2e-05", 
        "fix_gamma": "False", 
        "momentum": "0.9"
      }, 
      "inputs": [[589, 0, 0], [590, 0, 0], [591, 0, 0], [592, 0, 1], [593, 0, 1]]
    }, 
    {
      "op": "Activation", 
      "name": "stage3_unit12_relu2", 
      "attrs": {"act_type": "relu"}, 
      "inputs": [[594, 0, 0]]
    }, 
    {
      "op": "null", 
      "name": "stage3_unit12_conv3_weight", 
      "attrs": {
        "kernel": "(1, 1)", 
        "no_bias": "True", 
        "num_filter": "1024", 
        "pad": "(0, 0)", 
        "stride": "(1, 1)", 
        "workspace": "256"
      }, 
      "inputs": []
    }, 
    {
      "op": "Convolution", 
      "name": "stage3_unit12_conv3", 
      "attrs": {
        "kernel": "(1, 1)", 
        "no_bias": "True", 
        "num_filter": "1024", 
        "pad": "(0, 0)", 
        "stride": "(1, 1)", 
        "workspace": "256"
      }, 
      "inputs": [[595, 0, 0], [596, 0, 0]]
    }, 
    {
      "op": "null", 
      "name": "stage3_unit12_bn3_gamma", 
      "attrs": {
        "eps": "2e-05", 
        "fix_gamma": "False", 
        "momentum": "0.9"
      }, 
      "inputs": []
    }, 
    {
      "op": "null", 
      "name": "stage3_unit12_bn3_beta", 
      "attrs": {
        "eps": "2e-05", 
        "fix_gamma": "False", 
        "momentum": "0.9"
      }, 
      "inputs": []
    }, 
    {
      "op": "null", 
      "name": "stage3_unit12_bn3_moving_mean", 
      "attrs": {
        "__init__": "[\"zero\", {}]", 
        "eps": "2e-05", 
        "fix_gamma": "False", 
        "momentum": "0.9"
      }, 
      "inputs": []
    }, 
    {
      "op": "null", 
      "name": "stage3_unit12_bn3_moving_var", 
      "attrs": {
        "__init__": "[\"one\", {}]", 
        "eps": "2e-05", 
        "fix_gamma": "False", 
        "momentum": "0.9"
      }, 
      "inputs": []
    }, 
    {
      "op": "BatchNorm", 
      "name": "stage3_unit12_bn3", 
      "attrs": {
        "eps": "2e-05", 
        "fix_gamma": "False", 
        "momentum": "0.9"
      }, 
      "inputs": [[597, 0, 0], [598, 0, 0], [599, 0, 0], [600, 0, 1], [601, 0, 1]]
    }, 
    {
      "op": "elemwise_add", 
      "name": "_plus22", 
      "inputs": [[602, 0, 0], [579, 0, 0]]
    }, 
    {
      "op": "Activation", 
      "name": "stage3_unit12_relu3", 
      "attrs": {"act_type": "relu"}, 
      "inputs": [[603, 0, 0]]
    }, 
    {
      "op": "null", 
      "name": "stage3_unit13_conv1_weight", 
      "attrs": {
        "kernel": "(1, 1)", 
        "no_bias": "True", 
        "num_filter": "256", 
        "pad": "(0, 0)", 
        "stride": "(1, 1)", 
        "workspace": "256"
      }, 
      "inputs": []
    }, 
    {
      "op": "Convolution", 
      "name": "stage3_unit13_conv1", 
      "attrs": {
        "kernel": "(1, 1)", 
        "no_bias": "True", 
        "num_filter": "256", 
        "pad": "(0, 0)", 
        "stride": "(1, 1)", 
        "workspace": "256"
      }, 
      "inputs": [[604, 0, 0], [605, 0, 0]]
    }, 
    {
      "op": "null", 
      "name": "stage3_unit13_bn1_gamma", 
      "attrs": {
        "eps": "2e-05", 
        "fix_gamma": "False", 
        "momentum": "0.9"
      }, 
      "inputs": []
    }, 
    {
      "op": "null", 
      "name": "stage3_unit13_bn1_beta", 
      "attrs": {
        "eps": "2e-05", 
        "fix_gamma": "False", 
        "momentum": "0.9"
      }, 
      "inputs": []
    }, 
    {
      "op": "null", 
      "name": "stage3_unit13_bn1_moving_mean", 
      "attrs": {
        "__init__": "[\"zero\", {}]", 
        "eps": "2e-05", 
        "fix_gamma": "False", 
        "momentum": "0.9"
      }, 
      "inputs": []
    }, 
    {
      "op": "null", 
      "name": "stage3_unit13_bn1_moving_var", 
      "attrs": {
        "__init__": "[\"one\", {}]", 
        "eps": "2e-05", 
        "fix_gamma": "False", 
        "momentum": "0.9"
      }, 
      "inputs": []
    }, 
    {
      "op": "BatchNorm", 
      "name": "stage3_unit13_bn1", 
      "attrs": {
        "eps": "2e-05", 
        "fix_gamma": "False", 
        "momentum": "0.9"
      }, 
      "inputs": [[606, 0, 0], [607, 0, 0], [608, 0, 0], [609, 0, 1], [610, 0, 1]]
    }, 
    {
      "op": "Activation", 
      "name": "stage3_unit13_relu1", 
      "attrs": {"act_type": "relu"}, 
      "inputs": [[611, 0, 0]]
    }, 
    {
      "op": "null", 
      "name": "stage3_unit13_conv2_weight", 
      "attrs": {
        "kernel": "(3, 3)", 
        "no_bias": "True", 
        "num_filter": "256", 
        "pad": "(1, 1)", 
        "stride": "(1, 1)", 
        "workspace": "256"
      }, 
      "inputs": []
    }, 
    {
      "op": "Convolution", 
      "name": "stage3_unit13_conv2", 
      "attrs": {
        "kernel": "(3, 3)", 
        "no_bias": "True", 
        "num_filter": "256", 
        "pad": "(1, 1)", 
        "stride": "(1, 1)", 
        "workspace": "256"
      }, 
      "inputs": [[612, 0, 0], [613, 0, 0]]
    }, 
    {
      "op": "null", 
      "name": "stage3_unit13_bn2_gamma", 
      "attrs": {
        "eps": "2e-05", 
        "fix_gamma": "False", 
        "momentum": "0.9"
      }, 
      "inputs": []
    }, 
    {
      "op": "null", 
      "name": "stage3_unit13_bn2_beta", 
      "attrs": {
        "eps": "2e-05", 
        "fix_gamma": "False", 
        "momentum": "0.9"
      }, 
      "inputs": []
    }, 
    {
      "op": "null", 
      "name": "stage3_unit13_bn2_moving_mean", 
      "attrs": {
        "__init__": "[\"zero\", {}]", 
        "eps": "2e-05", 
        "fix_gamma": "False", 
        "momentum": "0.9"
      }, 
      "inputs": []
    }, 
    {
      "op": "null", 
      "name": "stage3_unit13_bn2_moving_var", 
      "attrs": {
        "__init__": "[\"one\", {}]", 
        "eps": "2e-05", 
        "fix_gamma": "False", 
        "momentum": "0.9"
      }, 
      "inputs": []
    }, 
    {
      "op": "BatchNorm", 
      "name": "stage3_unit13_bn2", 
      "attrs": {
        "eps": "2e-05", 
        "fix_gamma": "False", 
        "momentum": "0.9"
      }, 
      "inputs": [[614, 0, 0], [615, 0, 0], [616, 0, 0], [617, 0, 1], [618, 0, 1]]
    }, 
    {
      "op": "Activation", 
      "name": "stage3_unit13_relu2", 
      "attrs": {"act_type": "relu"}, 
      "inputs": [[619, 0, 0]]
    }, 
    {
      "op": "null", 
      "name": "stage3_unit13_conv3_weight", 
      "attrs": {
        "kernel": "(1, 1)", 
        "no_bias": "True", 
        "num_filter": "1024", 
        "pad": "(0, 0)", 
        "stride": "(1, 1)", 
        "workspace": "256"
      }, 
      "inputs": []
    }, 
    {
      "op": "Convolution", 
      "name": "stage3_unit13_conv3", 
      "attrs": {
        "kernel": "(1, 1)", 
        "no_bias": "True", 
        "num_filter": "1024", 
        "pad": "(0, 0)", 
        "stride": "(1, 1)", 
        "workspace": "256"
      }, 
      "inputs": [[620, 0, 0], [621, 0, 0]]
    }, 
    {
      "op": "null", 
      "name": "stage3_unit13_bn3_gamma", 
      "attrs": {
        "eps": "2e-05", 
        "fix_gamma": "False", 
        "momentum": "0.9"
      }, 
      "inputs": []
    }, 
    {
      "op": "null", 
      "name": "stage3_unit13_bn3_beta", 
      "attrs": {
        "eps": "2e-05", 
        "fix_gamma": "False", 
        "momentum": "0.9"
      }, 
      "inputs": []
    }, 
    {
      "op": "null", 
      "name": "stage3_unit13_bn3_moving_mean", 
      "attrs": {
        "__init__": "[\"zero\", {}]", 
        "eps": "2e-05", 
        "fix_gamma": "False", 
        "momentum": "0.9"
      }, 
      "inputs": []
    }, 
    {
      "op": "null", 
      "name": "stage3_unit13_bn3_moving_var", 
      "attrs": {
        "__init__": "[\"one\", {}]", 
        "eps": "2e-05", 
        "fix_gamma": "False", 
        "momentum": "0.9"
      }, 
      "inputs": []
    }, 
    {
      "op": "BatchNorm", 
      "name": "stage3_unit13_bn3", 
      "attrs": {
        "eps": "2e-05", 
        "fix_gamma": "False", 
        "momentum": "0.9"
      }, 
      "inputs": [[622, 0, 0], [623, 0, 0], [624, 0, 0], [625, 0, 1], [626, 0, 1]]
    }, 
    {
      "op": "elemwise_add", 
      "name": "_plus23", 
      "inputs": [[627, 0, 0], [604, 0, 0]]
    }, 
    {
      "op": "Activation", 
      "name": "stage3_unit13_relu3", 
      "attrs": {"act_type": "relu"}, 
      "inputs": [[628, 0, 0]]
    }, 
    {
      "op": "null", 
      "name": "stage3_unit14_conv1_weight", 
      "attrs": {
        "kernel": "(1, 1)", 
        "no_bias": "True", 
        "num_filter": "256", 
        "pad": "(0, 0)", 
        "stride": "(1, 1)", 
        "workspace": "256"
      }, 
      "inputs": []
    }, 
    {
      "op": "Convolution", 
      "name": "stage3_unit14_conv1", 
      "attrs": {
        "kernel": "(1, 1)", 
        "no_bias": "True", 
        "num_filter": "256", 
        "pad": "(0, 0)", 
        "stride": "(1, 1)", 
        "workspace": "256"
      }, 
      "inputs": [[629, 0, 0], [630, 0, 0]]
    }, 
    {
      "op": "null", 
      "name": "stage3_unit14_bn1_gamma", 
      "attrs": {
        "eps": "2e-05", 
        "fix_gamma": "False", 
        "momentum": "0.9"
      }, 
      "inputs": []
    }, 
    {
      "op": "null", 
      "name": "stage3_unit14_bn1_beta", 
      "attrs": {
        "eps": "2e-05", 
        "fix_gamma": "False", 
        "momentum": "0.9"
      }, 
      "inputs": []
    }, 
    {
      "op": "null", 
      "name": "stage3_unit14_bn1_moving_mean", 
      "attrs": {
        "__init__": "[\"zero\", {}]", 
        "eps": "2e-05", 
        "fix_gamma": "False", 
        "momentum": "0.9"
      }, 
      "inputs": []
    }, 
    {
      "op": "null", 
      "name": "stage3_unit14_bn1_moving_var", 
      "attrs": {
        "__init__": "[\"one\", {}]", 
        "eps": "2e-05", 
        "fix_gamma": "False", 
        "momentum": "0.9"
…
        "momentum": "0.9"
      }, 
      "inputs": [[906, 0, 0], [907, 0, 0], [908, 0, 0], [909, 0, 1], [910, 0, 1]]
    }, 
    {
      "op": "Activation", 
      "name": "stage3_unit25_relu1", 
      "attrs": {"act_type": "relu"}, 
      "inputs": [[911, 0, 0]]
    }, 
    {
      "op": "null", 
      "name": "stage3_unit25_conv2_weight", 
      "attrs": {
        "kernel": "(3, 3)", 
        "no_bias": "True", 
        "num_filter": "256", 
        "pad": "(1, 1)", 
        "stride": "(1, 1)", 
        "workspace": "256"
      }, 
      "inputs": []
    }, 
    {
      "op": "Convolution", 
      "name": "stage3_unit25_conv2", 
      "attrs": {
        "kernel": "(3, 3)", 
        "no_bias": "True", 
        "num_filter": "256", 
        "pad": "(1, 1)", 
        "stride": "(1, 1)", 
        "workspace": "256"
      }, 
      "inputs": [[912, 0, 0], [913, 0, 0]]
    }, 
    {
      "op": "null", 
      "name": "stage3_unit25_bn2_gamma", 
      "attrs": {
        "eps": "2e-05", 
        "fix_gamma": "False", 
        "momentum": "0.9"
      }, 
      "inputs": []
    }, 
    {
      "op": "null", 
      "name": "stage3_unit25_bn2_beta", 
      "attrs": {
        "eps": "2e-05", 
        "fix_gamma": "False", 
        "momentum": "0.9"
      }, 
      "inputs": []
    }, 
    {
      "op": "null", 
      "name": "stage3_unit25_bn2_moving_mean", 
      "attrs": {
        "__init__": "[\"zero\", {}]", 
        "eps": "2e-05", 
        "fix_gamma": "False", 
        "momentum": "0.9"
      }, 
      "inputs": []
    }, 
    {
      "op": "null", 
      "name": "stage3_unit25_bn2_moving_var", 
      "attrs": {
        "__init__": "[\"one\", {}]", 
        "eps": "2e-05", 
        "fix_gamma": "False", 
        "momentum": "0.9"
      }, 
      "inputs": []
    }, 
    {
      "op": "BatchNorm", 
      "name": "stage3_unit25_bn2", 
      "attrs": {
        "eps": "2e-05", 
        "fix_gamma": "False", 
        "momentum": "0.9"
      }, 
      "inputs": [[914, 0, 0], [915, 0, 0], [916, 0, 0], [917, 0, 1], [918, 0, 1]]
    }, 
    {
      "op": "Activation", 
      "name": "stage3_unit25_relu2", 
      "attrs": {"act_type": "relu"}, 
      "inputs": [[919, 0, 0]]
    }, 
    {
      "op": "null", 
      "name": "stage3_unit25_conv3_weight", 
      "attrs": {
        "kernel": "(1, 1)", 
        "no_bias": "True", 
        "num_filter": "1024", 
        "pad": "(0, 0)", 
        "stride": "(1, 1)", 
        "workspace": "256"
      }, 
      "inputs": []
    }, 
    {
      "op": "Convolution", 
      "name": "stage3_unit25_conv3", 
      "attrs": {
        "kernel": "(1, 1)", 
        "no_bias": "True", 
        "num_filter": "1024", 
        "pad": "(0, 0)", 
        "stride": "(1, 1)", 
        "workspace": "256"
      }, 
      "inputs": [[920, 0, 0], [921, 0, 0]]
    }, 
    {
      "op": "null", 
      "name": "stage3_unit25_bn3_gamma", 
      "attrs": {
        "eps": "2e-05", 
        "fix_gamma": "False", 
        "momentum": "0.9"
      }, 
      "inputs": []
    }, 
    {
      "op": "null", 
      "name": "stage3_unit25_bn3_beta", 
      "attrs": {
        "eps": "2e-05", 
        "fix_gamma": "False", 
        "momentum": "0.9"
      }, 
      "inputs": []
    }, 
    {
      "op": "null", 
      "name": "stage3_unit25_bn3_moving_mean", 
      "attrs": {
        "__init__": "[\"zero\", {}]", 
        "eps": "2e-05", 
        "fix_gamma": "False", 
        "momentum": "0.9"
      }, 
      "inputs": []
    }, 
    {
      "op": "null", 
      "name": "stage3_unit25_bn3_moving_var", 
      "attrs": {
        "__init__": "[\"one\", {}]", 
        "eps": "2e-05", 
        "fix_gamma": "False", 
        "momentum": "0.9"
      }, 
      "inputs": []
    }, 
    {
      "op": "BatchNorm", 
      "name": "stage3_unit25_bn3", 
      "attrs": {
        "eps": "2e-05", 
        "fix_gamma": "False", 
        "momentum": "0.9"
      }, 
      "inputs": [[922, 0, 0], [923, 0, 0], [924, 0, 0], [925, 0, 1], [926, 0, 1]]
    }, 
    {
      "op": "elemwise_add", 
      "name": "_plus35", 
      "inputs": [[927, 0, 0], [904, 0, 0]]
    }, 
    {
      "op": "Activation", 
      "name": "stage3_unit25_relu3", 
      "attrs": {"act_type": "relu"}, 
      "inputs": [[928, 0, 0]]
    }, 
    {
      "op": "null", 
      "name": "stage3_unit26_conv1_weight", 
      "attrs": {
        "kernel": "(1, 1)", 
        "no_bias": "True", 
        "num_filter": "256", 
        "pad": "(0, 0)", 
        "stride": "(1, 1)", 
        "workspace": "256"
      }, 
      "inputs": []
    }, 
    {
      "op": "Convolution", 
      "name": "stage3_unit26_conv1", 
      "attrs": {
        "kernel": "(1, 1)", 
        "no_bias": "True", 
        "num_filter": "256", 
        "pad": "(0, 0)", 
        "stride": "(1, 1)", 
        "workspace": "256"
      }, 
      "inputs": [[929, 0, 0], [930, 0, 0]]
    }, 
    {
      "op": "null", 
      "name": "stage3_unit26_bn1_gamma", 
      "attrs": {
        "eps": "2e-05", 
        "fix_gamma": "False", 
        "momentum": "0.9"
      }, 
      "inputs": []
    }, 
    {
      "op": "null", 
      "name": "stage3_unit26_bn1_beta", 
      "attrs": {
        "eps": "2e-05", 
        "fix_gamma": "False", 
        "momentum": "0.9"
      }, 
      "inputs": []
    }, 
    {
      "op": "null", 
      "name": "stage3_unit26_bn1_moving_mean", 
      "attrs": {
        "__init__": "[\"zero\", {}]", 
        "eps": "2e-05", 
        "fix_gamma": "False", 
        "momentum": "0.9"
      }, 
      "inputs": []
    }, 
    {
      "op": "null", 
      "name": "stage3_unit26_bn1_moving_var", 
      "attrs": {
        "__init__": "[\"one\", {}]", 
        "eps": "2e-05", 
        "fix_gamma": "False", 
        "momentum": "0.9"
      }, 
      "inputs": []
    }, 
    {
      "op": "BatchNorm", 
      "name": "stage3_unit26_bn1", 
      "attrs": {
        "eps": "2e-05", 
        "fix_gamma": "False", 
        "momentum": "0.9"
      }, 
      "inputs": [[931, 0, 0], [932, 0, 0], [933, 0, 0], [934, 0, 1], [935, 0, 1]]
    }, 
    {
      "op": "Activation", 
      "name": "stage3_unit26_relu1", 
      "attrs": {"act_type": "relu"}, 
      "inputs": [[936, 0, 0]]
    }, 
    {
      "op": "null", 
      "name": "stage3_unit26_conv2_weight", 
      "attrs": {
        "kernel": "(3, 3)", 
        "no_bias": "True", 
        "num_filter": "256", 
        "pad": "(1, 1)", 
        "stride": "(1, 1)", 
        "workspace": "256"
      }, 
      "inputs": []
    }, 
    {
      "op": "Convolution", 
      "name": "stage3_unit26_conv2", 
      "attrs": {
        "kernel": "(3, 3)", 
        "no_bias": "True", 
        "num_filter": "256", 
        "pad": "(1, 1)", 
        "stride": "(1, 1)", 
        "workspace": "256"
      }, 
      "inputs": [[937, 0, 0], [938, 0, 0]]
    }, 
    {
      "op": "null", 
      "name": "stage3_unit26_bn2_gamma", 
      "attrs": {
        "eps": "2e-05", 
        "fix_gamma": "False", 
        "momentum": "0.9"
      }, 
      "inputs": []
    }, 
    {
      "op": "null", 
      "name": "stage3_unit26_bn2_beta", 
      "attrs": {
        "eps": "2e-05", 
        "fix_gamma": "False", 
        "momentum": "0.9"
      }, 
      "inputs": []
    }, 
    {
      "op": "null", 
      "name": "stage3_unit26_bn2_moving_mean", 
      "attrs": {
        "__init__": "[\"zero\", {}]", 
        "eps": "2e-05", 
        "fix_gamma": "False", 
        "momentum": "0.9"
      }, 
      "inputs": []
    }, 
    {
      "op": "null", 
      "name": "stage3_unit26_bn2_moving_var", 
      "attrs": {
        "__init__": "[\"one\", {}]", 
        "eps": "2e-05", 
        "fix_gamma": "False", 
        "momentum": "0.9"
      }, 
      "inputs": []
    }, 
    {
      "op": "BatchNorm", 
      "name": "stage3_unit26_bn2", 
      "attrs": {
        "eps": "2e-05", 
        "fix_gamma": "False", 
        "momentum": "0.9"
      }, 
      "inputs": [[939, 0, 0], [940, 0, 0], [941, 0, 0], [942, 0, 1], [943, 0, 1]]
    }, 
    {
      "op": "Activation", 
      "name": "stage3_unit26_relu2", 
      "attrs": {"act_type": "relu"}, 
      "inputs": [[944, 0, 0]]
    }, 
    {
      "op": "null", 
      "name": "stage3_unit26_conv3_weight", 
      "attrs": {
        "kernel": "(1, 1)", 
        "no_bias": "True", 
        "num_filter": "1024", 
        "pad": "(0, 0)", 
        "stride": "(1, 1)", 
        "workspace": "256"
      }, 
      "inputs": []
    }, 
    {
      "op": "Convolution", 
      "name": "stage3_unit26_conv3", 
      "attrs": {
        "kernel": "(1, 1)", 
        "no_bias": "True", 
        "num_filter": "1024", 
        "pad": "(0, 0)", 
        "stride": "(1, 1)", 
        "workspace": "256"
      }, 
      "inputs": [[945, 0, 0], [946, 0, 0]]
    }, 
    {
      "op": "null", 
      "name": "stage3_unit26_bn3_gamma", 
      "attrs": {
        "eps": "2e-05", 
        "fix_gamma": "False", 
        "momentum": "0.9"
      }, 
      "inputs": []
    }, 
    {
      "op": "null", 
      "name": "stage3_unit26_bn3_beta", 
      "attrs": {
        "eps": "2e-05", 
        "fix_gamma": "False", 
        "momentum": "0.9"
      }, 
      "inputs": []
    }, 
    {
      "op": "null", 
      "name": "stage3_unit26_bn3_moving_mean", 
      "attrs": {
        "__init__": "[\"zero\", {}]", 
        "eps": "2e-05", 
        "fix_gamma": "False", 
        "momentum": "0.9"
      }, 
      "inputs": []
    }, 
    {
      "op": "null", 
      "name": "stage3_unit26_bn3_moving_var", 
      "attrs": {
        "__init__": "[\"one\", {}]", 
        "eps": "2e-05", 
        "fix_gamma": "False", 
        "momentum": "0.9"
      }, 
      "inputs": []
    }, 
    {
      "op": "BatchNorm", 
      "name": "stage3_unit26_bn3", 
      "attrs": {
        "eps": "2e-05", 
        "fix_gamma": "False", 
        "momentum": "0.9"
      }, 
      "inputs": [[947, 0, 0], [948, 0, 0], [949, 0, 0], [950, 0, 1], [951, 0, 1]]
    }, 
    {
      "op": "elemwise_add", 
      "name": "_plus36", 
      "inputs": [[952, 0, 0], [929, 0, 0]]
    }, 
    {
      "op": "Activation", 
      "name": "stage3_unit26_relu3", 
      "attrs": {"act_type": "relu"}, 
      "inputs": [[953, 0, 0]]
    }, 
    {
      "op": "null", 
      "name": "stage4_unit1_conv1_weight", 
      "attrs": {
        "kernel": "(1, 1)", 
        "no_bias": "True", 
        "num_filter": "512", 
        "pad": "(0, 0)", 
        "stride": "(1, 1)", 
        "workspace": "256"
      }, 
      "inputs": []
    }, 
    {
      "op": "Convolution", 
      "name": "stage4_unit1_conv1", 
      "attrs": {
        "kernel": "(1, 1)", 
        "no_bias": "True", 
        "num_filter": "512", 
        "pad": "(0, 0)", 
        "stride": "(1, 1)", 
        "workspace": "256"
      }, 
      "inputs": [[954, 0, 0], [955, 0, 0]]
    }, 
    {
      "op": "null", 
      "name": "stage4_unit1_bn1_gamma", 
      "attrs": {
        "eps": "2e-05", 
        "fix_gamma": "False", 
        "momentum": "0.9"
      }, 
      "inputs": []
    }, 
    {
      "op": "null", 
      "name": "stage4_unit1_bn1_beta", 
      "attrs": {
        "eps": "2e-05", 
        "fix_gamma": "False", 
        "momentum": "0.9"
      }, 
      "inputs": []
    }, 
    {
      "op": "null", 
      "name": "stage4_unit1_bn1_moving_mean", 
      "attrs": {
        "__init__": "[\"zero\", {}]", 
        "eps": "2e-05", 
        "fix_gamma": "False", 
        "momentum": "0.9"
      }, 
      "inputs": []
    }, 
    {
      "op": "null", 
      "name": "stage4_unit1_bn1_moving_var", 
      "attrs": {
        "__init__": "[\"one\", {}]", 
        "eps": "2e-05", 
        "fix_gamma": "False", 
        "momentum": "0.9"
      }, 
      "inputs": []
    }, 
    {
      "op": "BatchNorm", 
      "name": "stage4_unit1_bn1", 
      "attrs": {
        "eps": "2e-05", 
        "fix_gamma": "False", 
        "momentum": "0.9"
      }, 
      "inputs": [[956, 0, 0], [957, 0, 0], [958, 0, 0], [959, 0, 1], [960, 0, 1]]
    }, 
    {
      "op": "Activation", 
      "name": "stage4_unit1_relu1", 
      "attrs": {"act_type": "relu"}, 
      "inputs": [[961, 0, 0]]
    }, 
    {
      "op": "null", 
      "name": "stage4_unit1_conv2_weight", 
      "attrs": {
        "kernel": "(3, 3)", 
        "no_bias": "True", 
        "num_filter": "512", 
        "pad": "(1, 1)", 
        "stride": "(1, 1)", 
        "workspace": "256"
      }, 
      "inputs": []
    }, 
    {
      "op": "Convolution", 
      "name": "stage4_unit1_conv2", 
      "attrs": {
        "kernel": "(3, 3)", 
        "no_bias": "True", 
        "num_filter": "512", 
        "pad": "(1, 1)", 
        "stride": "(1, 1)", 
        "workspace": "256"
      }, 
      "inputs": [[962, 0, 0], [963, 0, 0]]
    }, 
    {
      "op": "null", 
      "name": "stage4_unit1_bn2_gamma", 
      "attrs": {
        "eps": "2e-05", 
        "fix_gamma": "False", 
        "momentum": "0.9"
      }, 
      "inputs": []
    }, 
    {
      "op": "null", 
      "name": "stage4_unit1_bn2_beta", 
      "attrs": {
        "eps": "2e-05", 
        "fix_gamma": "False", 
        "momentum": "0.9"
      }, 
      "inputs": []
    }, 
    {
      "op": "null", 
      "name": "stage4_unit1_bn2_moving_mean", 
      "attrs": {
        "__init__": "[\"zero\", {}]", 
        "eps": "2e-05", 
        "fix_gamma": "False", 
        "momentum": "0.9"
      }, 
      "inputs": []
    }, 
    {
      "op": "null", 
      "name": "stage4_unit1_bn2_moving_var", 
      "attrs": {
        "__init__": "[\"one\", {}]", 
        "eps": "2e-05", 
        "fix_gamma": "False", 
        "momentum": "0.9"
      }, 
      "inputs": []
    }, 
    {
      "op": "BatchNorm", 
      "name": "stage4_unit1_bn2", 
      "attrs": {
        "eps": "2e-05", 
        "fix_gamma": "False", 
        "momentum": "0.9"
      }, 
      "inputs": [[964, 0, 0], [965, 0, 0], [966, 0, 0], [967, 0, 1], [968, 0, 1]]
    }, 
    {
      "op": "Activation", 
      "name": "stage4_unit1_relu2", 
      "attrs": {"act_type": "relu"}, 
      "inputs": [[969, 0, 0]]
    }, 
    {
      "op": "null", 
      "name": "stage4_unit1_conv3_weight", 
      "attrs": {
        "kernel": "(1, 1)", 
        "no_bias": "True", 
        "num_filter": "2048", 
        "pad": "(0, 0)", 
        "stride": "(2, 2)", 
        "workspace": "256"
      }, 
      "inputs": []
    }, 
    {
      "op": "Convolution", 
      "name": "stage4_unit1_conv3", 
      "attrs": {
        "kernel": "(1, 1)", 
        "no_bias": "True", 
        "num_filter": "2048", 
        "pad": "(0, 0)", 
        "stride": "(2, 2)", 
        "workspace": "256"
      }, 
      "inputs": [[970, 0, 0], [971, 0, 0]]
    }, 
    {
      "op": "null", 
      "name": "stage4_unit1_bn3_gamma", 
      "attrs": {
        "eps": "2e-05", 
        "fix_gamma": "False", 
        "momentum": "0.9"
      }, 
      "inputs": []
    }, 
    {
      "op": "null", 
      "name": "stage4_unit1_bn3_beta", 
      "attrs": {
        "eps": "2e-05", 
        "fix_gamma": "False", 
        "momentum": "0.9"
      }, 
      "inputs": []
    }, 
    {
      "op": "null", 
      "name": "stage4_unit1_bn3_moving_mean", 
      "attrs": {
        "__init__": "[\"zero\", {}]", 
        "eps": "2e-05", 
        "fix_gamma": "False", 
        "momentum": "0.9"
      }, 
      "inputs": []
    }, 
    {
      "op": "null", 
      "name": "stage4_unit1_bn3_moving_var", 
      "attrs": {
        "__init__": "[\"one\", {}]", 
        "eps": "2e-05", 
        "fix_gamma": "False", 
        "momentum": "0.9"
      }, 
      "inputs": []
    }, 
    {
      "op": "BatchNorm", 
      "name": "stage4_unit1_bn3", 
      "attrs": {
        "eps": "2e-05", 
        "fix_gamma": "False", 
        "momentum": "0.9"
      }, 
      "inputs": [[972, 0, 0], [973, 0, 0], [974, 0, 0], [975, 0, 1], [976, 0, 1]]
    }, 
    {
      "op": "null", 
      "name": "stage4_unit1_conv1sc_weight", 
      "attrs": {
        "kernel": "(1, 1)", 
        "no_bias": "True", 
        "num_filter": "2048", 
        "stride": "(2, 2)", 
        "workspace": "256"
      }, 
      "inputs": []
    }, 
    {
      "op": "Convolution", 
      "name": "stage4_unit1_conv1sc", 
      "attrs": {
        "kernel": "(1, 1)", 
        "no_bias": "True", 
        "num_filter": "2048", 
        "stride": "(2, 2)", 
        "workspace": "256"
      }, 
      "inputs": [[954, 0, 0], [978, 0, 0]]
    }, 
    {
      "op": "null", 
      "name": "stage4_unit1_sc_gamma", 
      "attrs": {
        "eps": "2e-05", 
        "fix_gamma": "False", 
        "momentum": "0.9"
      }, 
      "inputs": []
    }, 
    {
      "op": "null", 
      "name": "stage4_unit1_sc_beta", 
      "attrs": {
        "eps": "2e-05", 
        "fix_gamma": "False", 
        "momentum": "0.9"
      }, 
      "inputs": []
    }, 
    {
      "op": "null", 
      "name": "stage4_unit1_sc_moving_mean", 
      "attrs": {
        "__init__": "[\"zero\", {}]", 
        "eps": "2e-05", 
        "fix_gamma": "False", 
        "momentum": "0.9"
      }, 
      "inputs": []
    }, 
    {
      "op": "null", 
      "name": "stage4_unit1_sc_moving_var", 
      "attrs": {
        "__init__": "[\"one\", {}]", 
        "eps": "2e-05", 
        "fix_gamma": "False", 
        "momentum": "0.9"
      }, 
      "inputs": []
    }, 
    {
      "op": "BatchNorm", 
      "name": "stage4_unit1_sc", 
      "attrs": {
        "eps": "2e-05", 
        "fix_gamma": "False", 
        "momentum": "0.9"
      }, 
      "inputs": [[979, 0, 0], [980, 0, 0], [981, 0, 0], [982, 0, 1], [983, 0, 1]]
    }, 
    {
      "op": "elemwise_add", 
      "name": "_plus37", 
      "inputs": [[977, 0, 0], [984, 0, 0]]
    }, 
    {
      "op": "Activation", 
      "name": "stage4_unit1_relu3", 
      "attrs": {"act_type": "relu"}, 
      "inputs": [[985, 0, 0]]
    }, 
    {
      "op": "null", 
      "name": "stage4_unit2_conv1_weight", 
      "attrs": {
        "kernel": "(1, 1)", 
        "no_bias": "True", 
        "num_filter": "512", 
        "pad": "(0, 0)", 
        "stride": "(1, 1)", 
        "workspace": "256"
      }, 
      "inputs": []
    }, 
    {
      "op": "Convolution", 
      "name": "stage4_unit2_conv1", 
      "attrs": {
        "kernel": "(1, 1)", 
        "no_bias": "True", 
        "num_filter": "512", 
        "pad": "(0, 0)", 
        "stride": "(1, 1)", 
        "workspace": "256"
      }, 
      "inputs": [[986, 0, 0], [987, 0, 0]]
    }, 
    {
      "op": "null", 
      "name": "stage4_unit2_bn1_gamma", 
      "attrs": {
        "eps": "2e-05", 
        "fix_gamma": "False", 
        "momentum": "0.9"
      }, 
      "inputs": []
    }, 
    {
      "op": "null", 
      "name": "stage4_unit2_bn1_beta", 
      "attrs": {
        "eps": "2e-05", 
        "fix_gamma": "False", 
        "momentum": "0.9"
      }, 
      "inputs": []
    }, 
    {
      "op": "null", 
      "name": "stage4_unit2_bn1_moving_mean", 
      "attrs": {
        "__init__": "[\"zero\", {}]", 
        "eps": "2e-05", 
        "fix_gamma": "False", 
        "momentum": "0.9"
      }, 
      "inputs": []
    }, 
    {
      "op": "null", 
      "name": "stage4_unit2_bn1_moving_var", 
      "attrs": {
        "__init__": "[\"one\", {}]", 
        "eps": "2e-05", 
        "fix_gamma": "False", 
        "momentum": "0.9"
      }, 
      "inputs": []
    }, 
    {
      "op": "BatchNorm", 
      "name": "stage4_unit2_bn1", 
      "attrs": {
        "eps": "2e-05", 
        "fix_gamma": "False", 
        "momentum": "0.9"
      }, 
      "inputs": [[988, 0, 0], [989, 0, 0], [990, 0, 0], [991, 0, 1], [992, 0, 1]]
    }, 
    {
      "op": "Activation", 
      "name": "stage4_unit2_relu1", 
      "attrs": {"act_type": "relu"}, 
      "inputs": [[993, 0, 0]]
    }, 
    {
      "op": "null", 
      "name": "stage4_unit2_conv2_weight", 
      "attrs": {
        "kernel": "(3, 3)", 
        "no_bias": "True", 
        "num_filter": "512", 
        "pad": "(1, 1)", 
        "stride": "(1, 1)", 
        "workspace": "256"
      }, 
      "inputs": []
    }, 
    {
      "op": "Convolution", 
      "name": "stage4_unit2_conv2", 
      "attrs": {
        "kernel": "(3, 3)", 
        "no_bias": "True", 
        "num_filter": "512", 
        "pad": "(1, 1)", 
        "stride": "(1, 1)", 
        "workspace": "256"
      }, 
      "inputs": [[994, 0, 0], [995, 0, 0]]
    }, 
    {
      "op": "null", 
      "name": "stage4_unit2_bn2_gamma", 
      "attrs": {
        "eps": "2e-05", 
        "fix_gamma": "False", 
        "momentum": "0.9"
      }, 
      "inputs": []
    }, 
    {
      "op": "null", 
      "name": "stage4_unit2_bn2_beta", 
      "attrs": {
        "eps": "2e-05", 
        "fix_gamma": "False", 
        "momentum": "0.9"
      }, 
      "inputs": []
    }, 
    {
      "op": "null", 
      "name": "stage4_unit2_bn2_moving_mean", 
      "attrs": {
        "__init__": "[\"zero\", {}]", 
        "eps": "2e-05", 
        "fix_gamma": "False", 
        "momentum": "0.9"
      }, 
      "inputs": []
    }, 
    {
      "op": "null", 
      "name": "stage4_unit2_bn2_moving_var", 
      "attrs": {
        "__init__": "[\"one\", {}]", 
        "eps": "2e-05", 
        "fix_gamma": "False", 
        "momentum": "0.9"
      }, 
      "inputs": []
    }, 
    {
      "op": "BatchNorm", 
      "name": "stage4_unit2_bn2", 
      "attrs": {
        "eps": "2e-05", 
        "fix_gamma": "False", 
        "momentum": "0.9"
      }, 
      "inputs": [[996, 0, 0], [997, 0, 0], [998, 0, 0], [999, 0, 1], [1000, 0, 1]]
    }, 
    {
      "op": "Activation", 
      "name": "stage4_unit2_relu2", 
      "attrs": {"act_type": "relu"}, 
      "inputs": [[1001, 0, 0]]
    }, 
    {
      "op": "null", 
      "name": "stage4_unit2_conv3_weight", 
      "attrs": {
        "kernel": "(1, 1)", 
        "no_bias": "True", 
        "num_filter": "2048", 
        "pad": "(0, 0)", 
        "stride": "(1, 1)", 
        "workspace": "256"
      }, 
      "inputs": []
    }, 
    {
      "op": "Convolution", 
      "name": "stage4_unit2_conv3", 
      "attrs": {
        "kernel": "(1, 1)", 
        "no_bias": "True", 
        "num_filter": "2048", 
        "pad": "(0, 0)", 
        "stride": "(1, 1)", 
        "workspace": "256"
      }, 
      "inputs": [[1002, 0, 0], [1003, 0, 0]]
    }, 
    {
      "op": "null", 
      "name": "stage4_unit2_bn3_gamma", 
      "attrs": {
        "eps": "2e-05", 
        "fix_gamma": "False", 
        "momentum": "0.9"
      }, 
      "inputs": []
    }, 
    {
      "op": "null", 
      "name": "stage4_unit2_bn3_beta", 
      "attrs": {
        "eps": "2e-05", 
        "fix_gamma": "False", 
        "momentum": "0.9"
      }, 
      "inputs": []
    }, 
    {
      "op": "null", 
      "name": "stage4_unit2_bn3_moving_mean", 
      "attrs": {
        "__init__": "[\"zero\", {}]", 
        "eps": "2e-05", 
        "fix_gamma": "False", 
        "momentum": "0.9"
      }, 
      "inputs": []
    }, 
    {
      "op": "null", 
      "name": "stage4_unit2_bn3_moving_var", 
      "attrs": {
        "__init__": "[\"one\", {}]", 
        "eps": "2e-05", 
        "fix_gamma": "False", 
        "momentum": "0.9"
      }, 
      "inputs": []
    }, 
    {
      "op": "BatchNorm", 
      "name": "stage4_unit2_bn3", 
      "attrs": {
        "eps": "2e-05", 
        "fix_gamma": "False", 
        "momentum": "0.9"
      }, 
      "inputs": [[1004, 0, 0], [1005, 0, 0], [1006, 0, 0], [1007, 0, 1], [1008, 0, 1]]
    }, 
    {
      "op": "elemwise_add", 
      "name": "_plus38", 
      "inputs": [[1009, 0, 0], [986, 0, 0]]
    }, 
    {
      "op": "Activation", 
      "name": "stage4_unit2_relu3", 
      "attrs": {"act_type": "relu"}, 
      "inputs": [[1010, 0, 0]]
    }, 
    {
      "op": "null", 
      "name": "stage4_unit3_conv1_weight", 
      "attrs": {
        "kernel": "(1, 1)", 
        "no_bias": "True", 
        "num_filter": "512", 
        "pad": "(0, 0)", 
        "stride": "(1, 1)", 
        "workspace": "256"
      }, 
      "inputs": []
    }, 
    {
      "op": "Convolution", 
      "name": "stage4_unit3_conv1", 
      "attrs": {
        "kernel": "(1, 1)", 
        "no_bias": "True", 
        "num_filter": "512", 
        "pad": "(0, 0)", 
        "stride": "(1, 1)", 
        "workspace": "256"
      }, 
      "inputs": [[1011, 0, 0], [1012, 0, 0]]
    }, 
    {
      "op": "null", 
      "name": "stage4_unit3_bn1_gamma", 
      "attrs": {
        "eps": "2e-05", 
        "fix_gamma": "False", 
        "momentum": "0.9"
      }, 
      "inputs": []
    }, 
    {
      "op": "null", 
      "name": "stage4_unit3_bn1_beta", 
      "attrs": {
        "eps": "2e-05", 
        "fix_gamma": "False", 
        "momentum": "0.9"
      }, 
      "inputs": []
    }, 
    {
      "op": "null", 
      "name": "stage4_unit3_bn1_moving_mean", 
      "attrs": {
        "__init__": "[\"zero\", {}]", 
        "eps": "2e-05", 
        "fix_gamma": "False", 
        "momentum": "0.9"
      }, 
      "inputs": []
    }, 
    {
      "op": "null", 
      "name": "stage4_unit3_bn1_moving_var", 
      "attrs": {
        "__init__": "[\"one\", {}]", 
        "eps": "2e-05", 
        "fix_gamma": "False", 
        "momentum": "0.9"
      }, 
      "inputs": []
    }, 
    {
      "op": "BatchNorm", 
      "name": "stage4_unit3_bn1", 
      "attrs": {
        "eps": "2e-05", 
        "fix_gamma": "False", 
        "momentum": "0.9"
      }, 
      "inputs": [[1013, 0, 0], [1014, 0, 0], [1015, 0, 0], [1016, 0, 1], [1017, 0, 1]]
    }, 
    {
      "op": "Activation", 
      "name": "stage4_unit3_relu1", 
      "attrs": {"act_type": "relu"}, 
      "inputs": [[1018, 0, 0]]
    }, 
    {
      "op": "null", 
      "name": "stage4_unit3_conv2_weight", 
      "attrs": {
        "kernel": "(3, 3)", 
        "no_bias": "True", 
        "num_filter": "512", 
        "pad": "(1, 1)", 
        "stride": "(1, 1)", 
        "workspace": "256"
      }, 
      "inputs": []
    }, 
    {
      "op": "Convolution", 
      "name": "stage4_unit3_conv2", 
      "attrs": {
        "kernel": "(3, 3)", 
        "no_bias": "True", 
        "num_filter": "512", 
        "pad": "(1, 1)", 
        "stride": "(1, 1)", 
        "workspace": "256"
      }, 
      "inputs": [[1019, 0, 0], [1020, 0, 0]]
    }, 
    {
      "op": "null", 
      "name": "stage4_unit3_bn2_gamma", 
      "attrs": {
        "eps": "2e-05", 
        "fix_gamma": "False", 
        "momentum": "0.9"
      }, 
      "inputs": []
    }, 
    {
      "op": "null", 
      "name": "stage4_unit3_bn2_beta", 
      "attrs": {
        "eps": "2e-05", 
        "fix_gamma": "False", 
        "momentum": "0.9"
      }, 
      "inputs": []
    }, 
    {
      "op": "null", 
      "name": "stage4_unit3_bn2_moving_mean", 
      "attrs": {
        "__init__": "[\"zero\", {}]", 
        "eps": "2e-05", 
        "fix_gamma": "False", 
        "momentum": "0.9"
      }, 
      "inputs": []
    }, 
    {
      "op": "null", 
      "name": "stage4_unit3_bn2_moving_var", 
      "attrs": {
        "__init__": "[\"one\", {}]", 
        "eps": "2e-05", 
        "fix_gamma": "False", 
        "momentum": "0.9"
      }, 
      "inputs": []
    }, 
    {
      "op": "BatchNorm", 
      "name": "stage4_unit3_bn2", 
      "attrs": {
        "eps": "2e-05", 
        "fix_gamma": "False", 
        "momentum": "0.9"
      }, 
      "inputs": [[1021, 0, 0], [1022, 0, 0], [1023, 0, 0], [1024, 0, 1], [1025, 0, 1]]
    }, 
    {
      "op": "Activation", 
      "name": "stage4_unit3_relu2", 
      "attrs": {"act_type": "relu"}, 
      "inputs": [[1026, 0, 0]]
    }, 
    {
      "op": "null", 
      "name": "stage4_unit3_conv3_weight", 
      "attrs": {
        "kernel": "(1, 1)", 
        "no_bias": "True", 
        "num_filter": "2048", 
        "pad": "(0, 0)", 
        "stride": "(1, 1)", 
        "workspace": "256"
      }, 
      "inputs": []
    }, 
    {
      "op": "Convolution", 
      "name": "stage4_unit3_conv3", 
      "attrs": {
        "kernel": "(1, 1)", 
        "no_bias": "True", 
        "num_filter": "2048", 
        "pad": "(0, 0)", 
        "stride": "(1, 1)", 
        "workspace": "256"
      }, 
      "inputs": [[1027, 0, 0], [1028, 0, 0]]
    }, 
    {
      "op": "null", 
      "name": "stage4_unit3_bn3_gamma", 
      "attrs": {
        "eps": "2e-05", 
        "fix_gamma": "False", 
        "momentum": "0.9"
      }, 
      "inputs": []
    }, 
    {
      "op": "null", 
      "name": "stage4_unit3_bn3_beta", 
      "attrs": {
        "eps": "2e-05", 
        "fix_gamma": "False", 
        "momentum": "0.9"
      }, 
      "inputs": []
    }, 
    {
      "op": "null", 
      "name": "stage4_unit3_bn3_moving_mean", 
      "attrs": {
        "__init__": "[\"zero\", {}]", 
        "eps": "2e-05", 
        "fix_gamma": "False", 
        "momentum": "0.9"
      }, 
      "inputs": []
    }, 
    {
      "op": "null", 
      "name": "stage4_unit3_bn3_moving_var", 
      "attrs": {
        "__init__": "[\"one\", {}]", 
        "eps": "2e-05", 
        "fix_gamma": "False", 
        "momentum": "0.9"
      }, 
      "inputs": []
    }, 
    {
      "op": "BatchNorm", 
      "name": "stage4_unit3_bn3", 
      "attrs": {
        "eps": "2e-05", 
        "fix_gamma": "False", 
        "momentum": "0.9"
      }, 
      "inputs": [[1029, 0, 0], [1030, 0, 0], [1031, 0, 0], [1032, 0, 1], [1033, 0, 1]]
    }, 
    {
      "op": "elemwise_add", 
      "name": "_plus39", 
      "inputs": [[1034, 0, 0], [1011, 0, 0]]
    }, 
    {
      "op": "Activation", 
      "name": "stage4_unit3_relu3", 
      "attrs": {"act_type": "relu"}, 
      "inputs": [[1035, 0, 0]]
    }, 
    {
      "op": "null", 
      "name": "conv_final_weight", 
      "attrs": {
        "kernel": "(1, 1)", 
        "no_bias": "True", 
        "num_filter": "48", 
        "pad": "(0, 0)", 
        "stride": "(1, 1)", 
        "workspace": "256"
      }, 
      "inputs": []
    }, 
    {
      "op": "Convolution", 
      "name": "conv_final", 
      "attrs": {
        "kernel": "(1, 1)", 
        "no_bias": "True", 
        "num_filter": "48", 
        "pad": "(0, 0)", 
        "stride": "(1, 1)", 
        "workspace": "256"
      }, 
      "inputs": [[1036, 0, 0], [1037, 0, 0]]
    }, 
    {
      "op": "null", 
      "name": "bn1_gamma", 
      "attrs": {
        "eps": "2e-05", 
        "fix_gamma": "False", 
        "momentum": "0.9"
      }, 
      "inputs": []
    }, 
    {
      "op": "null", 
      "name": "bn1_beta", 
      "attrs": {
        "eps": "2e-05", 
        "fix_gamma": "False", 
        "momentum": "0.9"
      }, 
      "inputs": []
    }, 
    {
      "op": "null", 
      "name": "bn1_moving_mean", 
      "attrs": {
        "__init__": "[\"zero\", {}]", 
        "eps": "2e-05", 
        "fix_gamma": "False", 
        "momentum": "0.9"
      }, 
      "inputs": []
    }, 
    {
      "op": "null", 
      "name": "bn1_moving_var", 
      "attrs": {
        "__init__": "[\"one\", {}]", 
        "eps": "2e-05", 
        "fix_gamma": "False", 
        "momentum": "0.9"
      }, 
      "inputs": []
    }, 
    {
      "op": "BatchNorm", 
      "name": "bn1", 
      "attrs": {
        "eps": "2e-05", 
        "fix_gamma": "False", 
        "momentum": "0.9"
      }, 
      "inputs": [[1038, 0, 0], [1039, 0, 0], [1040, 0, 0], [1041, 0, 1], [1042, 0, 1]]
    }, 
    {
      "op": "null", 
      "name": "pre_fc1_weight", 
      "attrs": {"num_hidden": "384"}, 
      "inputs": []
    }, 
    {
      "op": "null", 
      "name": "pre_fc1_bias", 
      "attrs": {"num_hidden": "384"}, 
      "inputs": []
    }, 
    {
      "op": "FullyConnected", 
      "name": "pre_fc1", 
      "attrs": {"num_hidden": "384"}, 
      "inputs": [[1043, 0, 0], [1044, 0, 0], [1045, 0, 0]]
    }, 
    {
      "op": "null", 
      "name": "fc1_gamma", 
      "attrs": {
        "eps": "2e-05", 
        "fix_gamma": "True", 
        "momentum": "0.9"
      }, 
      "inputs": []
    }, 
    {
      "op": "null", 
      "name": "fc1_beta", 
      "attrs": {
        "eps": "2e-05", 
        "fix_gamma": "True", 
        "momentum": "0.9"
      }, 
      "inputs": []
    }, 
    {
      "op": "null", 
      "name": "fc1_moving_mean", 
      "attrs": {
        "__init__": "[\"zero\", {}]", 
        "eps": "2e-05", 
        "fix_gamma": "True", 
        "momentum": "0.9"
      }, 
      "inputs": []
    }, 
    {
      "op": "null", 
      "name": "fc1_moving_var", 
      "attrs": {
        "__init__": "[\"one\", {}]", 
        "eps": "2e-05", 
        "fix_gamma": "True", 
        "momentum": "0.9"
      }, 
      "inputs": []
    }, 
    {
      "op": "BatchNorm", 
      "name": "fc1", 
      "attrs": {
        "eps": "2e-05", 
        "fix_gamma": "True", 
        "momentum": "0.9"
      }, 
      "inputs": [[1046, 0, 0], [1047, 0, 0], [1048, 0, 0], [1049, 0, 1], [1050, 0, 1]]
    }
  ], 
  "arg_nodes": [
    0, 
    1, 
    3, 
    4, 
    5, 
    6, 
    9, 
    11, 
    12, 
    13, 
    14, 
    17, 
    19, 
    20, 
    21, 
    22, 
    25, 
    27, 
    28, 
    29, 
    30, 
    32, 
    34, 
    35, 
    36, 
    37, 
    41, 
    43, 
    44, 
    45, 
    46, 
    49, 
    51, 
    52, 
    53, 
    54, 
    57, 
    59, 
    60, 
    61, 
    62, 
    66, 
    68, 
    69, 
    70, 
    71, 
    74, 
    76, 
    77, 
    78, 
    79, 
    82, 
    84, 
    85, 
    86, 
    87, 
    91, 
    93, 
    94, 
    95, 
    96, 
    99, 
    101, 
    102, 
    103, 
    104, 
    107, 
    109, 
    110, 
    111, 
    112, 
    114, 
    116, 
    117, 
    118, 
    119, 
    123, 
    125, 
    126, 
    127, 
    128, 
    131, 
    133, 
    134, 
    135, 
    136, 
    139, 
    141, 
    142, 
    143, 
    144, 
    148, 
    150, 
    151, 
    152, 
    153, 
    156, 
    158, 
    159, 
    160, 
    161, 
    164, 
    166, 
    167, 
    168, 
    169, 
    173, 
    175, 
    176, 
    177, 
    178, 
    181, 
    183, 
    184, 
    185, 
    186, 
    189, 
    191, 
    192, 
    193, 
    194, 
    198, 
    200, 
    201, 
    202, 
    203, 
    206, 
    208, 
    209, 
    210, 
    211, 
    214, 
    216, 
    217, 
    218, 
    219, 
    223, 
    225, 
    226, 
    227, 
    228, 
    231, 
    233, 
    234, 
    235, 
    236, 
    239, 
    241, 
    242, 
    243, 
    244, 
    248, 
    250, 
    251, 
    252, 
    253, 
    256, 
    258, 
    259, 
    260, 
    261, 
    264, 
    266, 
    267, 
    268, 
    269, 
    273, 
    275, 
    276, 
    277, 
    278, 
    281, 
    283, 
    284, 
    285, 
    286, 
    289, 
    291, 
    292, 
    293, 
    294, 
    298, 
    300, 
    301, 
    302, 
    303, 
    306, 
    308, 
    309, 
    310, 
    311, 
    314, 
    316, 
    317, 
    318, 
    319, 
    321, 
    323, 
    324, 
    325, 
    326, 
    330, 
    332, 
    333, 
    334, 
    335, 
    338, 
    340, 
    341, 
    342, 
    343, 
    346, 
    348, 
    349, 
    350, 
    351, 
    355, 
    357, 
    358, 
    359, 
    360, 
    363, 
    365, 
    366, 
    367, 
    368, 
    371, 
    373, 
    374, 
    375, 
    376, 
    380, 
    382, 
    383, 
    384, 
    385, 
    388, 
    390, 
    391, 
    392, 
    393, 
    396, 
    398, 
    399, 
    400, 
    401, 
    405, 
    407, 
    408, 
    409, 
    410, 
    413, 
    415, 
    416, 
    417, 
    418, 
    421, 
    423, 
    424, 
    425, 
    426, 
    430, 
    432, 
    433, 
    434, 
    435, 
    438, 
    440, 
    441, 
    442, 
    443, 
    446, 
    448, 
    449, 
    450, 
    451, 
    455, 
    457, 
    458, 
    459, 
    460, 
    463, 
    465, 
    466, 
    467, 
    468, 
    471, 
    473, 
    474, 
    475, 
    476, 
    480, 
    482, 
    483, 
    484, 
    485, 
    488, 
    490, 
    491, 
    492, 
    493, 
    496, 
    498, 
    499, 
    500, 
    501, 
    505, 
    507, 
    508, 
    509, 
    510, 
    513, 
    515, 
    516, 
    517, 
    518, 
    521, 
    523, 
    524, 
    525, 
    526, 
    530, 
    532, 
    533, 
    534, 
    535, 
    538, 
    540, 
    541, 
    542, 
    543, 
    546, 
    548, 
    549, 
    550, 
    551, 
    555, 
    557, 
    558, 
    559, 
    560, 
    563, 
    565, 
    566, 
    567, 
    568, 
    571, 
    573, 
    574, 
    575, 
    576, 
    580, 
    582, 
    583, 
    584, 
    585, 
    588, 
    590, 
    591, 
    592, 
    593, 
    596, 
    598, 
    599, 
    600, 
    601, 
    605, 
    607, 
    608, 
    609, 
    610, 
    613, 
    615, 
    616, 
    617, 
    618, 
    621, 
    623, 
    624, 
    625, 
    626, 
    630, 
    632, 
    633, 
    634, 
    635, 
    638, 
    640, 
    641, 
    642, 
    643, 
    646, 
    648, 
    649, 
    650, 
    651, 
    655, 
    657, 
    658, 
    659, 
    660, 
    663, 
    665, 
    666, 
    667, 
    668, 
    671, 
    673, 
    674, 
    675, 
    676, 
    680, 
    682, 
    683, 
    684, 
    685, 
    688, 
    690, 
    691, 
    692, 
    693, 
    696, 
    698, 
    699, 
    700, 
    701, 
    705, 
    707, 
    708, 
    709, 
    710, 
    713, 
    715, 
    716, 
    717, 
    718, 
    721, 
    723, 
    724, 
    725, 
    726, 
    730, 
    732, 
    733, 
    734, 
    735, 
    738, 
    740, 
    741, 
    742, 
    743, 
    746, 
    748, 
    749, 
    750, 
    751, 
    755, 
    757, 
    758, 
    759, 
    760, 
    763, 
    765, 
    766, 
    767, 
    768, 
    771, 
    773, 
    774, 
    775, 
    776, 
    780, 
    782, 
    783, 
    784, 
    785, 
    788, 
    790, 
    791, 
    792, 
    793, 
    796, 
    798, 
    799, 
    800, 
    801, 
    805, 
    807, 
    808, 
    809, 
    810, 
    813, 
    815, 
    816, 
    817, 
    818, 
    821, 
    823, 
    824, 
    825, 
    826, 
    830, 
    832, 
    833, 
    834, 
    835, 
    838, 
    840, 
    841, 
    842, 
    843, 
    846, 
    848, 
    849, 
    850, 
    851, 
    855, 
    857, 
    858, 
    859, 
    860, 
    863, 
    865, 
    866, 
    867, 
    868, 
    871, 
    873, 
    874, 
    875, 
    876, 
    880, 
    882, 
    883, 
    884, 
    885, 
    888, 
    890, 
    891, 
    892, 
    893, 
    896, 
    898, 
    899, 
    900, 
    901, 
    905, 
    907, 
    908, 
    909, 
    910, 
    913, 
    915, 
    916, 
    917, 
    918, 
    921, 
    923, 
    924, 
    925, 
    926, 
    930, 
    932, 
    933, 
    934, 
    935, 
    938, 
    940, 
    941, 
    942, 
    943, 
    946, 
    948, 
    949, 
    950, 
    951, 
    955, 
    957, 
    958, 
    959, 
    960, 
    963, 
    965, 
    966, 
    967, 
    968, 
    971, 
    973, 
    974, 
    975, 
    976, 
    978, 
    980, 
    981, 
    982, 
    983, 
    987, 
    989, 
    990, 
    991, 
    992, 
    995, 
    997, 
    998, 
    999, 
    1000, 
    1003, 
    1005, 
    1006, 
    1007, 
    1008, 
    1012, 
    1014, 
    1015, 
    1016, 
    1017, 
    1020, 
    1022, 
    1023, 
    1024, 
    1025, 
    1028, 
    1030, 
    1031, 
    1032, 
    1033, 
    1037, 
    1039, 
    1040, 
    1041, 
    1042, 
    1044, 
    1045, 
    1047, 
    1048, 
    1049, 
    1050
  ], 
  "node_row_ptr": [
    0, 
    1, 
    2, 
    3, 
    4, 
    5, 
    6, 
    7, 
    10, 
    11, 
    12, 
    13, 
    14, 
    15, 
    16, 
    17, 
    20, 
    21, 
    22, 
    23, 
    24, 
    25, 
    26, 
    27, 
    30, 
    31, 
    32, 
    33, 
    34, 
    35, 
    36, 
    37, 
    40, 
    41, 
    42, 
    43, 
    44, 
    45, 
    46, 
    49, 
    50, 
    51, 
    52, 
    53, 
    54, 
    55, 
    56, 
    57, 
    60, 
    61, 
    62, 
    63, 
    64, 
    65, 
    66, 
    67, 
    70, 
    71, 
    72, 
    73, 
    74, 
    75, 
    76, 
    77, 
    80, 
    81, 
    82, 
    83, 
    84, 
    85, 
    86, 
    87, 
    88, 
    91, 
    92, 
    93, 
    94, 
    95, 
    96, 
    97, 
    98, 
    101, 
    102, 
    103, 
    104, 
    105, 
    106, 
    107, 
    108, 
    111, 
    112, 
    113, 
    114, 
    115, 
    116, 
    117, 
    118, 
    119, 
    122, 
    123, 
    124, 
    125, 
    126, 
    127, 
    128, 
    129, 
    132, 
    133, 
    134, 
    135, 
    136, 
    137, 
    138, 
    139, 
    142, 
    143, 
    144, 
    145, 
    146, 
    147, 
    148, 
    151, 
    152, 
    153, 
    154, 
    155, 
    156, 
    157, 
    158, 
    159, 
    162, 
    163, 
    164, 
    165, 
    166, 
    167, 
    168, 
    169, 
    172, 
    173, 
    174, 
    175, 
    176, 
    177, 
    178, 
    179, 
    182, 
    183, 
    184, 
    185, 
    186, 
    187, 
    188, 
    189, 
    190, 
    193, 
    194, 
    195, 
    196, 
    197, 
    198, 
    199, 
    200, 
    203, 
    204, 
    205, 
    206, 
    207, 
    208, 
    209, 
    210, 
    213, 
    214, 
    215, 
    216, 
    217, 
    218, 
    219, 
    220, 
    221, 
    224, 
    225, 
    226, 
    227, 
    228, 
    229, 
    230, 
    231, 
    234, 
    235, 
    236, 
    237, 
    238, 
    239, 
    240, 
    241, 
    244, 
    245, 
    246, 
    247, 
    248, 
    249, 
    250, 
    251, 
    252, 
    255, 
    256, 
    257, 
    258, 
    259, 
    260, 
    261, 
    262, 
    265, 
    266, 
    267, 
    268, 
    269, 
    270, 
    271, 
    272, 
    275, 
    276, 
    277, 
    278, 
    279, 
    280, 
    281, 
    282, 
    283, 
    286, 
    287, 
    288, 
    289, 
    290, 
    291, 
    292, 
    293, 
    296, 
    297, 
    298, 
    299, 
    300, 
    301, 
    302, 
    303, 
    306, 
    307, 
    308, 
    309, 
    310, 
    311, 
    312, 
    313, 
    314, 
    317, 
    318, 
    319, 
    320, 
    321, 
    322, 
    323, 
    324, 
    327, 
    328, 
    329, 
    330, 
    331, 
    332, 
    333, 
    334, 
    337, 
    338, 
    339, 
    340, 
    341, 
    342, 
    343, 
    344, 
    345, 
    348, 
    349, 
    350, 
    351, 
    352, 
    353, 
    354, 
    355, 
    358, 
    359, 
    360, 
    361, 
    362, 
    363, 
    364, 
    365, 
    368, 
    369, 
    370, 
    371, 
    372, 
    373, 
    374, 
    375, 
    376, 
    379, 
    380, 
    381, 
    382, 
    383, 
    384, 
    385, 
    386, 
    389, 
    390, 
    391, 
    392, 
    393, 
    394, 
    395, 
    396, 
    399, 
    400, 
    401, 
    402, 
    403, 
    404, 
    405, 
    408, 
    409, 
    410, 
    411, 
    412, 
    413, 
    414, 
    415, 
    416, 
    419, 
    420, 
    421, 
    422, 
    423, 
    424, 
    425, 
    426, 
    429, 
    430, 
    431, 
    432, 
    433, 
    434, 
    435, 
    436, 
    439, 
    440, 
    441, 
    442, 
    443, 
    444, 
    445, 
    446, 
    447, 
    450, 
    451, 
    452, 
    453, 
    454, 
    455, 
    456, 
    457, 
    460, 
    461, 
    462, 
    463, 
    464, 
    465, 
    466, 
    467, 
    470, 
    471, 
    472, 
    473, 
    474, 
    475, 
    476, 
    477, 
    478, 
    481, 
    482, 
    483, 
    484, 
    485, 
    486, 
    487, 
    488, 
    491, 
    492, 
    493, 
    494, 
    495, 
    496, 
    497, 
    498, 
    501, 
    502, 
    503, 
    504, 
    505, 
    506, 
    507, 
    508, 
    509, 
    512, 
    513, 
    514, 
    515, 
    516, 
    517, 
    518, 
    519, 
    522, 
    523, 
    524, 
    525, 
    526, 
    527, 
    528, 
    529, 
    532, 
    533, 
    534, 
    535, 
    536, 
    537, 
    538, 
    539, 
    540, 
    543, 
    544, 
    545, 
    546, 
    547, 
    548, 
    549, 
    550, 
    553, 
    554, 
    555, 
    556, 
    557, 
    558, 
    559, 
    560, 
    563, 
    564, 
    565, 
    566, 
    567, 
    568, 
    569, 
    570, 
    571, 
    574, 
    575, 
    576, 
    577, 
    578, 
    579, 
    580, 
    581, 
    584, 
    585, 
    586, 
    587, 
    588, 
    589, 
    590, 
    591, 
    594, 
    595, 
    596, 
    597, 
    598, 
    599, 
    600, 
    601, 
    602, 
    605, 
    606, 
    607, 
    608, 
    609, 
    610, 
    611, 
    612, 
    615, 
    616, 
    617, 
    618, 
    619, 
    620, 
    621, 
    622, 
    625, 
    626, 
    627, 
    628, 
    629, 
    630, 
    631, 
    632, 
    633, 
    636, 
    637, 
    638, 
    639, 
    640, 
    641, 
    642, 
    643, 
    646, 
    647, 
    648, 
    649, 
    650, 
    651, 
    652, 
    653, 
    656, 
    657, 
    658, 
    659, 
    660, 
    661, 
    662, 
    663, 
    664, 
    667, 
    668, 
    669, 
    670, 
    671, 
    672, 
    673, 
    674, 
    677, 
    678, 
    679, 
    680, 
    681, 
    682, 
    683, 
    684, 
    687, 
    688, 
    689, 
    690, 
    691, 
    692, 
    693, 
    694, 
    695, 
    698, 
    699, 
    700, 
    701, 
    702, 
    703, 
    704, 
    705, 
    708, 
    709, 
    710, 
    711, 
    712, 
    713, 
    714, 
    715, 
    718, 
    719, 
    720, 
    721, 
    722, 
    723, 
    724, 
    725, 
    726, 
    729, 
    730, 
    731, 
    732, 
    733, 
    734, 
    735, 
    736, 
    739, 
    740, 
    741, 
    742, 
    743, 
    744, 
    745, 
    746, 
    749, 
    750, 
    751, 
    752, 
    753, 
    754, 
    755, 
    756, 
    757, 
    760, 
    761, 
    762, 
    763, 
    764, 
    765, 
    766, 
    767, 
    770, 
    771, 
    772, 
    773, 
    774, 
    775, 
    776, 
    777, 
    780, 
    781, 
    782, 
    783, 
    784, 
    785, 
    786, 
    787, 
    788, 
    791, 
    792, 
    793, 
    794, 
    795, 
    796, 
    797, 
    798, 
    801, 
    802, 
    803, 
    804, 
    805, 
    806, 
    807, 
    808, 
    811, 
    812, 
    813, 
    814, 
    815, 
    816, 
    817, 
    818, 
    819, 
    822, 
    823, 
    824, 
    825, 
    826, 
    827, 
    828, 
    829, 
    832, 
    833, 
    834, 
    835, 
    836, 
    837, 
    838, 
    839, 
    842, 
    843, 
    844, 
    845, 
    846, 
    847, 
    848, 
    849, 
    850, 
    853, 
    854, 
    855, 
    856, 
    857, 
    858, 
    859, 
    860, 
    863, 
    864, 
    865, 
    866, 
    867, 
    868, 
    869, 
    870, 
    873, 
    874, 
    875, 
    876, 
    877, 
    878, 
    879, 
    880, 
    881, 
    884, 
    885, 
    886, 
    887, 
    888, 
    889, 
    890, 
    891, 
    894, 
    895, 
    896, 
    897, 
    898, 
    899, 
    900, 
    901, 
    904, 
    905, 
    906, 
    907, 
    908, 
    909, 
    910, 
    911, 
    912, 
    915, 
    916, 
    917, 
    918, 
    919, 
    920, 
    921, 
    922, 
    925, 
    926, 
    927, 
    928, 
    929, 
    930, 
    931, 
    932, 
    935, 
    936, 
    937, 
    938, 
    939, 
    940, 
    941, 
    942, 
    943, 
    946, 
    947, 
    948, 
    949, 
    950, 
    951, 
    952, 
    953, 
    956, 
    957, 
    958, 
    959, 
    960, 
    961, 
    962, 
    963, 
    966, 
    967, 
    968, 
    969, 
    970, 
    971, 
    972, 
    973, 
    974, 
    977, 
    978, 
    979, 
    980, 
    981, 
    982, 
    983, 
    984, 
    987, 
    988, 
    989, 
    990, 
    991, 
    992, 
    993, 
    994, 
    997, 
    998, 
    999, 
    1000, 
    1001, 
    1002, 
    1003, 
    1004, 
    1005, 
    1008, 
    1009, 
    1010, 
    1011, 
    1012, 
    1013, 
    1014, 
    1015, 
    1018, 
    1019, 
    1020, 
    1021, 
    1022, 
    1023, 
    1024, 
    1025, 
    1028, 
    1029, 
    1030, 
    1031, 
    1032, 
    1033, 
    1034, 
    1035, 
    1036, 
    1039, 
    1040, 
    1041, 
    1042, 
    1043, 
    1044, 
    1045, 
    1046, 
    1049, 
    1050, 
    1051, 
    1052, 
    1053, 
    1054, 
    1055, 
    1056, 
    1059, 
    1060, 
    1061, 
    1062, 
    1063, 
    1064, 
    1065, 
    1066, 
    1067, 
    1070, 
    1071, 
    1072, 
    1073, 
    1074, 
    1075, 
    1076, 
    1077, 
    1080, 
    1081, 
    1082, 
    1083, 
    1084, 
    1085, 
    1086, 
    1087, 
    1090, 
    1091, 
    1092, 
    1093, 
    1094, 
    1095, 
    1096, 
    1097, 
    1098, 
    1101, 
    1102, 
    1103, 
    1104, 
    1105, 
    1106, 
    1107, 
    1108, 
    1111, 
    1112, 
    1113, 
    1114, 
    1115, 
    1116, 
    1117, 
    1118, 
    1121, 
    1122, 
    1123, 
    1124, 
    1125, 
    1126, 
    1127, 
    1128, 
    1129, 
    1132, 
    1133, 
    1134, 
    1135, 
    1136, 
    1137, 
    1138, 
    1139, 
    1142, 
    1143, 
    1144, 
    1145, 
    1146, 
    1147, 
    1148, 
    1149, 
    1152, 
    1153, 
    1154, 
    1155, 
    1156, 
    1157, 
    1158, 
    1159, 
    1160, 
    1163, 
    1164, 
    1165, 
    1166, 
    1167, 
    1168, 
    1169, 
    1170, 
    1173, 
    1174, 
    1175, 
    1176, 
    1177, 
    1178, 
    1179, 
    1180, 
    1183, 
    1184, 
    1185, 
    1186, 
    1187, 
    1188, 
    1189, 
    1190, 
    1191, 
    1194, 
    1195, 
    1196, 
    1197, 
    1198, 
    1199, 
    1200, 
    1201, 
    1204, 
    1205, 
    1206, 
    1207, 
    1208, 
    1209, 
    1210, 
    1211, 
    1214, 
    1215, 
    1216, 
    1217, 
    1218, 
    1219, 
    1220, 
    1223, 
    1224, 
    1225, 
    1226, 
    1227, 
    1228, 
    1229, 
    1230, 
    1231, 
    1234, 
    1235, 
    1236, 
    1237, 
    1238, 
    1239, 
    1240, 
    1241, 
    1244, 
    1245, 
    1246, 
    1247, 
    1248, 
    1249, 
    1250, 
    1251, 
    1254, 
    1255, 
    1256, 
    1257, 
    1258, 
    1259, 
    1260, 
    1261, 
    1262, 
    1265, 
    1266, 
    1267, 
    1268, 
    1269, 
    1270, 
    1271, 
    1272, 
    1275, 
    1276, 
    1277, 
    1278, 
    1279, 
    1280, 
    1281, 
    1282, 
    1285, 
    1286, 
    1287, 
    1288, 
    1289, 
    1290, 
    1291, 
    1292, 
    1293, 
    1296, 
    1297, 
    1298, 
    1299, 
    1300, 
    1301, 
    1302, 
    1303, 
    1306
  ], 
  "heads": [[1051, 0, 0]], 
  "attrs": {"mxnet_version": ["int", 10400]}
}